ppo_critic.pth (torch, 526359 bytes, 3 tensors)

fc1.weight f4 [32, 4096]
000000 02 aa 3d bc 1c be 0e 3c d8 a9 0f bb b0 e4 61 3b
       -0.011576178 0.008712318 -0.0021921303 0.0034468584
000010 90 d5 5e 3b 18 0e e2 3b 7c cd 38 3c 00 64 81 b9
       0.0034001805 0.0068986528 0.01127946 -0.00024679303
000020 b4 87 0f 3c a2 a0 23 3c ac eb f5 3b 10 b8 97 ba
       0.0087603815 0.009987028 0.007504901 -0.0011575241
000030 a0 94 c4 3b a0 20 11 bb 6c f4 01 bc dc 59 a8 bb
       0.005999163 -0.002214469 -0.00793181 -0.005137665
000040 f0 4e 57 3b 80 b6 c0 3b 44 7a cf bb 40 4b ae 3b
       0.0032853447 0.0058811307 -0.006331714 0.005319029
000050 cc c0 d9 bb 9c 72 6f 3c 48 c1 01 3b 90 17 f4 ba
       -0.0066452976 0.014614727 0.0019799042 -0.0018622745
000060 96 95 79 bc 90 4c 7c bb 00 bb 23 bb 88 8a 8a 3b
       -0.015233418 -0.0038497783 -0.0024983287 0.00422794
000070 58 22 63 3c 00 4a dc 3a 68 90 33 3c 10 e3 9c 3a
       0.013863169 0.0016806722 0.010959722 0.0011969525
000080 38 2f 5f bb 5e 93 02 bc 06 e2 53 bc 14 56 59 3c
       -0.0034055244 -0.007969705 -0.012932306 0.0132651515
000090 5e 14 27 bc 1a bb 74 bc a4 96 62 3c 56 ac 33 bc
       -0.010197727 -0.014937187 0.013829861 -0.010966381
0000a0 d4 e4 0b 3c f8 f3 93 3b 86 70 0e 3c 44 f4 b8 3b
       0.008538444 0.0045151673 0.00869382 0.005644353
0000b0 70 9f 02 bc 00 63 81 39 50 3c 4f 3b 74 b1 7b 3c
       -0.007972583 0.00024678558 0.0031621642 0.015362132
0000c0 70 9b c5 3b 00 26 9b bb 46 3f 3d bc 46 9e 70 bc
       0.0060304925 -0.0047347546 -0.01155073 -0.014686173
0000d0 74 4e 80 3b 98 b0 21 3b 28 52 04 3b 10 67 10 bc
       0.0039156023 0.0024671908 0.002019057 -0.0088136345
0000e0 1e 19 6f 3c 40 49 aa b9 0a 04 47 3c f8 91 e3 bb
       0.014593391 -0.00032479502 0.012146959 -0.006944891
0000f0 7c 82 8a 3b 70 06 73 bb aa ab 73 bc 72 23 00 bc
       0.0042269807 -0.0037082694 -0.014872471 -0.007820951
000100 1c 35 ac bb c0 18 2e 3b 0a d6 2b bc 8e 5c 47 bc
       -0.0052553546 0.0026565045 -0.010488043 -0.012168063
000110 66 fb 2e bc e2 2c 71 bc 28 b6 fa 3a 65 33 64 bb
       -0.010680055 -0.014720174 0.0019127773 -0.0034820673
000120 c6 9e 4c ba 72 32 2a 3b 69 e8 c9 ba a1 2b 4d 3c
       -0.00078056415 0.002597001 -0.0015404347 0.012522609
000130 2f d8 45 3b 79 58 41 3c 91 a6 46 3c b3 c7 56 3c
       0.003018867 0.011800879 0.012124673 0.013109135
000140 2a c5 28 3b 6e ec 90 3b af 5f 4f bc d6 8f 8c 3b
       0.0025752285 0.004422716 -0.01265709 0.0042896075
000150 9a 96 6e bc 30 3d 5a 3c cc 11 15 3c 66 9b 16 3c
       -0.014562273 0.013320252 0.009098481 0.009192323
000160 92 7e 24 3c 4d 4e 81 3b 14 5e 2c 3c d7 7c 12 bc
       0.010039942 0.0039461018 0.010520477 -0.008940897
000170 92 46 41 bc a3 98 17 bc c7 9d 8a bc ca 8e 8d 3b
       -0.01179661 -0.0092527 -0.016920937 0.0043200003
000180 04 03 97 3b 42 d9 67 bc dc e7 23 bc de 24 84 bc
       0.004608514 -0.014150919 -0.01000401 -0.01613086
000190 bd ba 8f bc d1 40 5c bc 3d ad 79 bc fd 79 89 bc
       -0.017545098 -0.013443188 -0.015239057 -0.016781801
0001a0 61 d0 03 3c 92 71 91 3b 33 b3 51 ba 0f bf f1 3b
       0.008045287 0.0044385875 -0.000799942 0.0073775123
0001b0 3e ba bc bb 7b b1 84 bc 49 cf 96 ba 50 34 2f 3c
       -0.0057595065 -0.01619791 -0.0011505868 0.010693625
0001c0 80 15 b6 3a 83 99 08 bb c9 26 00 bc a4 de 21 bc
       0.0013891906 -0.0020843453 -0.007821747 -0.009879742
0001d0 fd 2d 52 3b bd ca 42 3c ab 48 08 bc 27 78 c8 bb
       0.0032070868 0.011889157 -0.008318107 -0.006117839
0001e0 47 b8 84 bc df bd 13 bb 2e 70 2e 3c 77 38 85 bc
       -0.016201152 -0.0022543592 0.010646863 -0.016262276
0001f0 e9 be 0e bc 00 16 2e 39 18 ad 05 3b 44 6f 86 bb
       -0.008712509 0.00016602129 0.0020397361 -0.0041026194
000200 3c 56 d0 3b 60 95 91 bb a5 79 1e 3c 77 c1 9b bb
       0.006357936 -0.0044428557 0.009672557 -0.0047532874
000210 c6 de 80 bc 4d 89 59 bc fd dc 39 3c f1 88 e2 3b
       -0.015731227 -0.013277364 0.011344192 0.0069132973
000220 49 09 c3 b8 33 f9 3e ba 60 3b 6b bb 74 93 8a ba
       -9.300054e-05 -0.00072850584 -0.0035893545 -0.0010572509
000230 37 89 d9 3b 9f f2 3c bc dd a7 6e bc ff a6 8e 3b
       0.0066386717 -0.011532455 -0.014566389 0.0043534036
000240 ad 1c 47 3c e2 ce 16 bb ef fc 67 3b 0a 57 3d bc
       0.012152833 -0.0023011495 0.0035398563 -0.011556396
000250 6e d8 58 bc 40 d7 05 bc 19 91 4a 3c 71 7e 93 bc
       -0.013235195 -0.008168995 0.012363696 -0.018004628
000260 22 52 63 3b f4 da 84 bc e0 c2 88 bb 73 52 43 bc
       0.0034686406 -0.016217686 -0.0041736215 -0.011921513
000270 e6 e5 36 3c 5c 7d 48 bb f6 89 0f 3c 5a ee 3a 3b
       0.0111632105 -0.0030592298 0.00876092 0.0028523416
000280 ff 18 99 bc b9 e6 b2 3b a7 94 63 bc c1 59 14 bc
       -0.018688677 0.005459633 -0.013890422 -0.009054602
000290 86 ad 3e 3c 31 c8 8b 3a cf eb a4 b9 2c b8 96 bb
       0.011638051 0.001066452 -0.0003145621 -0.0045995917
0002a0 fd 5a e4 ba 2c 3f c8 bb cc 72 a3 3a 2b b1 bc 3b
       -0.0017422136 -0.0061110463 0.0012470125 0.0057584248
0002b0 fa 46 98 ba 03 45 99 3b eb 95 e7 3b bd 15 02 bc
       -0.0011617832 0.0046774163 0.007067432 -0.007939753
0002c0 74 4b 94 bc 27 4e d1 bb 81 bd df bb 0d c7 f8 39
       -0.018102385 -0.0063874903 -0.0068280105 0.0004745055
0002d0 7f af 72 bc 79 3d a1 bb 67 f2 f4 3b 4f 1c 80 bb
       -0.014812349 -0.004920658 0.0074751857 -0.0039096246
0002e0 74 03 d5 ba 0d ce 09 bc 52 f6 90 3a 58 a4 42 3c
       -0.001625164 -0.008410943 0.0011059737 0.011880003
0002f0 90 79 1b bc 10 4a 90 bb c4 94 16 bc 04 ea 9e 3b
       -0.009489432 -0.00440336 -0.009190742 0.004849674
000300 80 fa f4 b9 f6 94 48 bc be e7 f6 3a 3d 8b 81 bb
       -0.00046725944 -0.012242546 0.0018837375 -0.003953366
000310 93 7e 97 3b e9 b1 eb 3b 07 43 b2 3b 2a 46 0a bc
       0.004623243 0.0071928394 0.005440119 -0.00843958
000320 d3 0c 0f 3b e9 c1 c4 3b c9 83 af bb 69 b7 b8 3b
       0.0021827712 0.006004561 -0.005356286 0.0056370986
000330 78 01 50 3c 93 6c 55 3c e6 7e 23 3c fd fd 5f 3c
       0.012695663 0.013026374 0.009978985 0.013671395
000340 7a a8 0b bb 8b d8 d7 3b 4b c7 32 bc 0f 9d 37 bc
       -0.0021310137 0.006587093 -0.010911773 -0.011206879
000350 b6 53 95 bb de 28 fa 3b ff e6 28 bc 39 d6 0c bc
       -0.0045570983 0.0076342663 -0.01030898 -0.008595997
000360 5a e0 b7 3b 62 b3 82 bc 0d a7 41 3c 90 7c a2 3a
       0.0056114616 -0.015954677 0.011819613 0.0012396742
000370 aa f2 bb bb 7d e5 14 3c 55 a9 8a bc b3 4d 26 bb
       -0.005735715 0.009087917 -0.016926447 -0.0025375902
000380 a3 84 72 bc 69 f9 92 bc 1e 3d 85 bc 01 15 6c bc
       -0.014802131 -0.017941194 -0.016264495 -0.014409305
000390 e6 cc 82 bc ec c4 93 bc 07 21 0a 3c d1 f9 bc bb
       -0.015966844 -0.018038236 0.008430726 -0.005767085
0003a0 9f 2a 2a 3c bf 65 91 3b 1e e1 9f ba 4d c3 e4 3a
       0.010386138 0.004437178 -0.0012197827 0.0017453224
0003b0 55 43 3a bc d9 d1 1b bc bc 32 83 bc c1 68 5e bb
       -0.011368592 -0.009510481 -0.016015403 -0.003393695
0003c0 16 09 15 3b 87 3b 47 3b 6c 38 53 bc 93 a9 a7 bb
       0.0022741011 0.0030400471 -0.01289187 -0.0051166504
0003d0 98 99 8a bb 4d 54 18 bc cd 9e de bb 23 47 9e bb
       -0.0042297356 -0.009297443 -0.006793833 -0.0048302575
0003e0 ea aa aa bb 65 69 e1 3a 14 cd f6 3b 6a da d9 bb
       -0.005208363 0.0017197548 0.0075317714 -0.0066483514
0003f0 c2 a4 bf 3a b8 8f a8 bb 82 7b 23 bc 92 a3 03 bc
       0.0014621245 -0.0051440857 -0.009978177 -0.008034604

fc1.bias f4 [32]
000000 87 86 cc b9 ce f7 e8 bb ee 9c f7 3c 40 90 61 bc
       -0.00039010143 -0.0071096187 0.030226197 -0.013767302
000010 f2 ea 75 bc b3 30 20 3c bc 51 16 3d 81 1b b3 3c
       -0.015009629 0.009777236 0.03669904 0.0218637
000020 4c 87 17 3d fc 53 83 3c 3e 28 f7 bb fb 2b 2c 3d
       0.036994264 0.016031258 -0.007542639 0.04203413
000030 e3 7b 33 3c 54 66 c0 bb ef 88 31 3c f0 2a 78 bb
       0.01095483 -0.0058715735 0.01083587 -0.003786739
000040 31 76 12 3c 3c 16 d3 3c ee 92 98 bc fb 05 62 3c
       0.008939312 0.025767438 -0.018624749 0.013795371
000050 2d 78 04 3d 0e bd 51 3b 44 6c 31 3d 64 40 d0 3c
       0.03234117 0.0032003555 0.04331614 0.025421329
000060 1c b1 a4 3c 8f d3 13 3d 76 2f ac 3c 21 f9 4a 3b
       0.020103984 0.03609043 0.021018725 0.0030971246
000070 4e 17 16 3d 02 55 a4 3c 8b 44 3d 3d eb e3 73 3d
       0.03664332 0.020060066 0.046207946 0.05954353

fc2.weight f4 [1, 32]
000000 04 c3 fd bd 3b 1b 32 bd 69 ea 0f 3e 20 e7 7f bd
       -0.12390712 -0.043483 0.14054264 -0.062476277
000010 18 44 f7 bd 9c fb 0e bd 4c 31 e8 3d 08 9e 41 3e
       -0.12073535 -0.034907922 0.11337528 0.1890794
000020 d1 90 66 3e 89 12 63 3e 5c f8 e6 bd 66 8c 67 3e
       0.2251618 0.2217504 -0.112778395 0.22612152
000030 05 fe a6 bd d1 0b 06 be 50 c8 22 be ba fd 35 bd
       -0.08153919 -0.13090445 -0.15896726 -0.044431426
000040 8c f3 da bd a5 0c 75 3e b4 8b 0a be dc 19 69 3e
       -0.10690984 0.23930605 -0.13529855 0.22763771
000050 65 9b 1a 3e 95 71 25 be 4b 28 2e 3e 8d 58 76 3e
       0.15098341 -0.1615661 0.17007558 0.24057217
000060 a9 00 3f 3e f0 94 27 3e fc 73 17 3e aa 49 c9 bd
       0.18652596 0.16365409 0.14790338 -0.098285034
000070 0b 45 6a 3e 2a f4 7b 3e 01 3e f1 3d ae 0a e0 3d
       0.228779 0.2460486 0.117794044 0.10939537
