ppo_actor.pth (torch, 526487 bytes, 4 tensors)

fc1.weight f4 [32, 4096]
-0.0102304965 0.0136338435 0.0022644717 -0.005814716 0.0011750478 0.0054401066 -0.010260114 0.014947137
-0.010197077 0.0076408815 -0.005040096 0.0062764324 0.013982534 0.014182813 -0.012156831 0.005865179
0.0008351002 0.0109372325 -0.010131311 -0.012695886 -0.008307461 0.0040384326 5.201623e-05 0.010273246
-0.0011880528 -0.014702516 -0.0014679097 -0.012252718 -0.006779585 0.01548825 0.002778748 -0.0047890004
-0.0058624353 0.0027979277 0.00094151124 0.008768788 -0.0043748803 -0.0041719656 0.0055720825 -0.012658766
0.009035623 -0.0042757 0.003615588 -0.005403567 0.000741262 -0.0035402998 0.002075946 -0.009616822
-0.0075099524 0.011692684 0.012781475 0.009948019 0.011860408 -0.0070644952 0.008510005 0.011716573
0.0024587829 0.007890519 0.015277255 -0.0052035376 -0.002605632 0.004162954 0.0022875015 -0.0045830216
-0.0059186593 0.07466039 0.019875618 -0.03874028 -0.020121295 -0.0027894701 -0.020445101 -0.03980829
-0.06255416 -0.039276954 -0.012056267 0.008107188 0.008240556 0.083867215 0.054762848 0.04256585
0.024053248 0.038573083 0.048841093 0.02690488 0.023026275 -0.007953555 -0.026588585 -0.08988117
-0.0895336 -0.033507083 -0.07519867 -0.04584807 -0.052552644 0.0046805516 -0.004967833 -0.07645542
-0.078786016 -0.114532374 -0.021549404 -0.06555925 -0.07377878 -0.12602477 -0.10419557 -0.060819637
-0.037549645 -0.01214729 -0.025801009 -0.04736936 -0.030160187 -0.021627722 -0.018409742 -0.048737094
-0.060257036 -0.084595524 -0.056850802 -0.11603778 -0.1086999 -0.10025917 -0.10373913 -0.121730074
-0.06895867 -0.013043463 0.007024453 -0.028937427 -0.05785289 -0.008579353 0.008638307 0.0068089347
-0.013761185 -0.013106148 -0.025499094 -0.012137371 -0.05540919 -0.028219828 0.006772585 -0.01927916
-0.049335048 -0.034634825 -0.026195237 -0.03705098 -0.06743234 -0.02102289 -0.021657843 -0.010300603
-0.013647398 0.01156189 -0.010975732 -0.029947491 -0.015303653 -0.016955862 -0.044544287 -0.092430726
-0.086098686 -0.059225913 -0.070500724 -0.05925456 -0.04855306 -0.07168529 -0.040393293 -0.039864734
-0.112659864 -0.081606455 -0.06893361 -0.06146993 -0.09983598 -0.08071586 -0.09887501 -0.007413672
-0.028740564 -0.024880052 -0.041820347 -0.014960682 0.019322501 0.0077846334 -0.0013281011 -0.013387403
0.011685424 -0.060777247 -0.115571655 -0.014232523 -0.0016023852 -0.018749913 -0.101836346 -0.040633313
-0.036958452 0.012645823 -0.02011194 -0.052656446 0.013993509 0.004406035 0.011582201 0.0028000064
-0.0129401665 -0.051343326 0.004750929 -0.029242454 0.0136342365 0.023767447 0.04960287 0.028642725
0.01171348 0.035933413 -0.023053413 -0.019679487 0.013641752 0.06029086 -0.024322616 0.0059434767
0.0146803735 0.013051697 -0.007955124 0.0116978185 -0.003768105 0.017407093 0.017431598 -0.064874224
-0.053756773 0.012209217 0.020396264 0.06862886 0.0194178 0.023655064 -0.0079016015 -0.08884288
-0.13163945 -0.11619243 -0.07863411 -0.07078451 -0.07559718 -0.13833998 -0.13532604 -0.10733423
-0.06757673 -0.09061873 -0.075038806 -0.11261703 -0.10598839 -0.08932653 -0.077767 -0.053857237
-0.04404686 -0.056678765 -0.06476196 -0.022853069 -0.007689915 -0.055649687 -0.037887603 -0.05492017
-0.04974905 0.05162495 -0.042823598 -0.029816873 0.018897498 -0.015108392 -0.000935778 0.00762718
00000000: d09d 27bc 7c60 5f3c 8867 143b 6089 bebb
00000010: 1004 9a3a ec42 b23b 0a1a 28bc d6e4 743c
00000020: a411 27bc 5c60 fa3b 6427 a5bb 88aa cd3b
00000030: 0017 653c 085f 683c 722d 47bc b030 c03b
00000040: a0ea 5a3a 1432 333c ccfd 25bc 6802 50bc
00000050: 041c 08bc d454 843b 002c 5a38 1e51 283c
00000060: 70b8 9bba d2e2 70bc e066 c0ba a0bf 48bc
00000070: 4827 debb 6ec2 7d3c a81b 363b 0ced 9cbb
00000080: ac19 c0bb 705d 373b c0cf 763a f6aa 0f3c
00000090: 285b 8fbb fcb4 88bb 0496 b63b b666 4fbc
000000a0: 260a 143c 2c1b 8cbb 80f3 6c3b 6810 b1bb
000000b0: 4051 423a 6004 68bb 980c 083b e08f 1dbc
000000c0: 0c16 f6bb ac92 3f3c 6469 513c 04fd 223c
000000d0: 2852 423c 487d e7bb 8c6d 0b3c def6 3f3c
000000e0: 8823 213b 3c47 013c 744d 7a3c 7082 aabb
000000f0: 40c3 2abb 6469 883b e8e9 153b 2c2d 96bb
00000100: 50f1 c1bb 8ce7 983d 31d2 a23c 21ae 1ebd
00000110: 6ad5 a4bc 8bcf 36bb 7c7c a7bc 040e 23bd
00000120: 651c 80bd dfe0 20bd a687 45bc 03d4 043c
00000130: 6603 073c 93c2 ab3d 024f 603d 8759 2e3d
00000140: 510b c53c cffe 1d3d 990d 483d 9f67 dc3c
00000150: 99a1 bc3c a14f 02bc 4ed0 d9bc 9e13 b8bd
00000160: 645d b7bd b93e 09bd c301 9abd 30cb 3bbd
00000170: 7141 57bd 505f 993b 34c9 a2bb a994 9cbd
00000180: 905a a1bd f38f eabd 6088 b0bc ee43 86bd
00000190: 5419 97bd a30c 01be 7d64 d5bd 031e 79bd
000001a0: a8cd 19bd 6d05 47bc a35c d3bc 6006 42bd
000001b0: 7f12 f7bc 9f2c b1bc 07d0 96bc 8ca0 47bd
000001c0: 15d0 76bd 6b40 adbd 63dc 68bd 37a5 edbd
000001d0: 0e9e debd ae54 cdbd 2e75 d4bd 9e4d f9bd
000001e0: 343a 8dbd 40b4 55bc 622d e63b 2f0e edbc
000001f0: 27f7 6cbd 6a90 0cbc b087 0d3c 7c1d df3b
00000200: 9876 61bc 2bbb 56bc 7ae3 d0bc d3db 46bc
00000210: bff4 62bd 452d e7bc 90ec dd3b 54ef 9dbc
00000220: 8c13 4abd 3fdd 0dbd 6597 d6bc c5c2 17bd
00000230: f719 8abd 3238 acbc ca6b b1bc dcc3 28bc
00000240: 5699 5fbc 156e 3d3c 8ed3 33bc 7154 f5bc
00000250: 2cbc 7abc 05e7 8abc 1274 36bd 524c bdbd
00000260: 8254 b0bd df96 72bd af62 90bd e9b4 72bd
00000270: 93df 46bd bdcf 92bd 7073 25bd 3449 23bd
00000280: 37ba e6bd 4921 a7bd 112d 8dbd e5c7 7bbd
00000290: ce76 ccbd 5b4e a5bd fb7e cabd 63ee f2bb
000002a0: 5571 ebbc 40d1 cbbc d04b 2bbd a61d 75bc
000002b0: 394a 9e3c 3d16 ff3b ae13 aeba d756 5bbc
000002c0: 3874 3f3c 90f1 78bd d5b0 ecbd 872f 69bc
000002d0: 2007 d2ba 6b99 99bc 938f d0bd 1e6f 26bd
000002e0: bf61 17bd 6d30 4f3c ccc1 a4bc 49ae 57bd
000002f0: 0845 653c 8060 903b 46c3 3d3c 5080 373b
00000300: fe02 54bc 614d 52bd aead 9b3b df8d efbc
00000310: 2262 5f3c f3b3 c23c 612c 4b3d 26a4 ea3c
00000320: e5e9 3f3c ea2e 133d 83da bcbc e036 a1bc
00000330: a881 5f3c 8cf3 763d 3940 c7bc 7fc1 c23b
00000340: f385 703c c9d6 553c 3556 02bc 35a8 3f3c
00000350: 50f2 76bb 5299 8e3c b6cc 8e3c c7dc 84bd
00000360: 1030 5cbd 2b09 483c 1116 a73c 4a8d 8c3d
00000370: 1412 9f3c 44c8 c13c b875 01bc 42f3 b5bd
00000380: 7ecc 06be 4cf6 edbd ec0a a1bd 78f7 90bd
00000390: b2d2 9abd ffa8 0dbe e992 0abe 0cd2 dbbd
000003a0: ab65 8abd 5096 b9bd f2ad 99bd c2a3 e6bd
000003b0: 7110 d9bd d4f0 b6bd 4e44 9fbd 6899 5cbd
000003c0: 7b6a 34bd fe27 68bd eba1 84bd 5c36 bbbc
000003d0: affb fbbb edf0 63bd 0830 1bbd f9f3 60bd
000003e0: a9c5 4bbd af74 533d cc67 2fbd 8442 f4bc
000003f0: edce 9a3c 3089 77bc 004f 75ba 6ced f93b

fc1.bias f4 [32]
0.007208138 0.011382672 0.06753238 0.049805637 -0.025525006 0.028496044 0.06637975 0.05637518
-0.081184536 0.050479982 -0.028144712 0.020602746 0.03809401 0.10968356 -0.009601651 -0.032246877
-0.0048557757 0.08668551 0.01507629 0.043370627 0.07265009 0.047489382 0.041459993 0.028156793
0.08832676 -0.012167557 0.006091042 0.10702376 0.08019548 0.010471951 -0.0421389 0.02653339
00000000: 3e32 ec3b 637e 3a3c 6b4e 8a3d ff00 4c3d
00000010: d119 d1bc 8970 e93c 1bf2 873d a9e9 663d
00000020: 1444 a6bd 19c4 4e3d bd8f e6bc 17c7 a83c
00000030: 7708 1c3d c6a1 e03d 3e50 1dbc 4d15 04bd
00000040: 331d 9fbb 2c88 b13d 8b02 773c 66a5 313d
00000050: 92c9 943d 3a84 423d f4d1 293d 13a9 e63c
00000060: a9e4 b43d 6f5a 47bc 5d97 c73b 462f db3d
00000070: 873d a43d 8c92 2b3c d799 2cbd 8d5c d93c

fc2.weight f4 [2, 32]
0.139946 0.008847324 -0.014764043 -0.06833448 0.10491945 -0.11398517 -0.24543184 -0.3287891
0.12937455 -0.33958852 0.18785855 0.37878263 0.12255396 -0.2836332 -0.2749125 0.231978
0.13714494 -0.45902854 0.021972977 -0.19757354 -0.32014656 0.15295075 -0.32665205 -0.20407893
-0.35368305 0.103402175 0.12396743 -0.16903894 -0.43864095 0.07898492 0.23600055 -0.057619106
0.17668222 0.2703201 -0.26536593 -0.34587577 -0.2735577 -0.33567324 -0.27764612 -0.09398941
0.05903021 -0.2879799 0.06525358 -0.108287334 -0.25267592 0.11649809 0.018191036 -0.14333144
-0.21277206 0.22753267 0.23482412 0.11971136 -0.29917547 -0.38655725 0.11146127 0.111636765
-0.042733446 -0.15909532 -0.31196102 0.13717608 -0.21441087 0.22878268 -0.2344787 0.2610655
00000000: 014e 0f3e 5ef4 103c e2e4 71bc f3f2 8bbd
00000010: 02e0 d63d 0f71 e9bd 7c52 7bbe 0b57 a8be
00000020: c37a 043e 8cde adbe fe5d 403e ccef c13e
00000030: 92fd fa3d 5f38 91be 55c1 8cbe a48b 6d3e
00000040: b96f 0c3e ca05 ebbe ac00 b43c b850 4abe
00000050: 40ea a3be 1f9f 1c3e f03e a7be 11fa 50be
00000060: f215 b5be 85c4 d33d a3e2 fd3d 8b18 2dbe
00000070: 8c95 e0be d9c2 a13d 21aa 713e 0302 6cbd
00000080: 2fec 343e 6567 8a3e 0bde 87be a116 b1be
00000090: c10f 8cbe 5ddd abbe a227 8ebe 857d c0bd
000000a0: a9c9 713d 1a72 93be aba3 853d c0c5 ddbd
000000b0: bd5e 81be 8d96 ee3d 5e05 953c 7ac5 12be
000000c0: ebe0 59be 53fe 683e bc75 703e 3b2b f53d
000000d0: 872d 99be d5ea c5be ce45 e43d d1a1 e43d
000000e0: 4409 2fbd e2e9 22be 5bb9 9fbe e377 0c3e
000000f0: 868e 5bbe 0246 6a3e 2f1b 70be 61aa 853e

fc2.bias f4 [2]
0.013270317 0.01449014
00000000: be6b 593c 0d68 6d3c
