trained_models/Sprites-v1/seed=1.pt (torch, 267899 bytes, 14 tensors)

convs.0.weight f4 [4, 1, 3, 3]
00000000: 0653 ba3e 3c0f 1dbc d93d 203d ca9c 163e
00000010: 3d96 09bf 1109 5e3d 2716 74be e0f4 e5bc
00000020: 599c 693e 0ad3 583e e890 943e f9be 693e
00000030: 75b2 9c3e 0893 ee3b 1474 923e 30b0 1c3e
00000040: 08bb 863e bf20 593e 931b b13e 20bc 3d3e
00000050: 5caa 793d 2a95 54be 1fe4 a5bd b77b 17be
00000060: e3d8 92bc 3ad6 533d ac58 913e 32a7 563e
00000070: 6af3 03bf 7e05 993e a1b9 24bb 4d93 e03e
00000080: d442 343e 79e2 a3be 7f00 fabd 17a9 81be
0.36391467 -0.009586152 0.039121483 0.14708248 -0.5374487 0.054207865 -0.23836575 -0.028070867
0.22813548 0.21174255 0.29016805 0.22826757 0.30604902 0.007280711 0.28604186 0.15301585
0.2631457 0.21203898 0.3459135 0.18528795 0.060953483 -0.20760027 -0.08100151 -0.14793287
-0.017925685 0.051717974 0.28387964 0.20962217 -0.51543295 0.29887003 -0.0025135058 0.43862382
0.17603618 -0.32008722 -0.12207126 -0.25324318

convs.0.bias f4 [4]
00000000: da78 b2bd c27d b5bd a92d 56be a160 c6bd
-0.08714457 -0.08861877 -0.20915855 -0.09686399

convs.1.weight f4 [8, 4, 3, 3]
00000000: b40b 803e beb7 edbd f3b1 7f3e 6b0a f4bd
00000010: 32b1 e3bd 73f5 d83c 86a5 173d 59ed e5bd
00000020: 2dc6 1b3d aa2f 7fbe 6df3 bcbe 8e13 d5be
00000030: c7a1 553e a413 213e c8f8 7a3e 26c8 653e
00000040: b046 e73d 68d0 10be 6dd7 773e 141e a93e
00000050: 3a42 0c3b 431d a43d 9f8d e03d abf9 db3d
00000060: 8b08 95bd 4bc2 98bd 1cd3 cabd 0520 20bd
00000070: 8e5e b7be ba93 08bf 8d73 e53d c95e 92bc
00000080: ff81 6c3e a0b1 b6be e2a6 61be cdea 183e
00000090: 9260 683d cf38 6f3e d52e 78be 4848 3e3e
000000a0: 19a6 31be bf92 e6bd 50a9 f3bb 3e09 31be
000000b0: 3730 5d3e d1d7 d4be 955f 16be 94d3 8d3e
000000c0: 276e c0be 7a74 b6bc 545f 413d bfac 383c
000000d0: 950b 693d 9b22 89be 817b 0fbe 52e3 9c3d
000000e0: c331 1e3e de15 e9bc 420e 773c cd8b ce3d
000000f0: a64b 6e3e 81cf 143c 4805 d43c 4f01 6d3e
00000100: d5b8 d4bd 93f6 39be 623a 023e 69f6 9bbd
00000110: 264a 053d 90f4 69be e4cc 01be ffcb b93e
00000120: 8921 8a3e 9f3a 923b b67a c53d 3ceb 313e
00000130: 79f2 593e 73f8 a43e bfd3 00bf cc17 363d
00000140: 0709 a0bd 9bb5 2c3d 66b7 1e3e a04a 6ebe
00000150: 3243 183e 2f72 08bf 1ecd edbe 7098 e3bd
00000160: baa8 60bd 268d e93d 0860 cabd a506 5d3d
00000170: 0eb6 853e cd13 e53e 531c d23d a24c 333d
00000180: f867 f63d 27ca 02be f94c 5abe a925 693d
00000190: 7189 873d 4972 573e 4715 25be 4b88 863d
000001a0: 6bd1 5abd e515 2dbd f6c0 9f3e 3d30 b33c
000001b0: c5a0 743e 3a5f 6fbd 0037 ccbe 2a17 d43e
000001c0: b15e 0cbe 738a 0a3e 47a4 5abe 33ac ffbc
000001d0: 0114 013a d348 98be 9bd4 f13d 0ec9 89be
000001e0: 916d 8bbe 62e2 bc3e c818 103e 70a8 823e
000001f0: fedb 41be fb95 bfbe 0dc2 093e e526 fcbd
00000200: 7843 d9be d174 a4ba f906 143e 5083 803e
00000210: 639b 063e 7b51 b3bd 3440 5d3e 3741 233e
00000220: 3ec6 a0bd df5d 18be 89e0 0ebe f1f8 dc3d
00000230: e66b 86bd dd96 94bc b35b 9abd 0bc4 213d
00000240: 616f 72be b428 4c3e 89d9 0ebf 5ee7 c9bd
00000250: b8f7 de3e 9ba9 1dbe c0ac 56be b392 26bd
00000260: dbcf 2ebd 478b 0abe e6d5 8cbd 714e d4be
00000270: 942c 893c fd44 973e c63d 6d3e 7451 8abe
00000280: 4544 f6bd 395a c7be f72c 833d 979f 15be
00000290: 0931 92be 8755 c33d 5e97 f23e 9455 9c3d
000002a0: fdbf 94be d409 a2be f269 82be daa3 243c
000002b0: c6d2 e8be 4507 b03e b93c 6b3e 09b5 343d
000002c0: 5bf3 a93c 9b40 c0be b626 d03d 8949 723e
000002d0: d72e 62be e588 60be d98a 00be 3fc8 c6bc
000002e0: 70e3 0ebd 4719 4d3e 8c76 753d 7d3b 653e
000002f0: 402a e9bd bbe8 a63e fa1a 233e 4086 cebe
00000300: fb76 8c3e 50b3 febd 334f 04bf cda7 55bd
00000310: 6ba7 01bf e7c2 a6be 070d 233e 6e9f 16bd
00000320: 7ed5 edbe edf3 a33d 7c58 19be d952 cbbe
00000330: a124 b9be 70b0 2dbf 6046 ddbe 318a 59bf
00000340: 77dd e0bd 2cd8 a33e f701 143e 3202 373e
00000350: 2892 80bd e4ef 623e e822 8c3e 1b6b 33be
00000360: 07b4 ce3d 4b56 07be 774f 12bd 85e1 fbbd
00000370: 9756 36bd 5f7c 713e a307 36be cb28 e23e
00000380: a036 263e 1e3f 39be 5277 a13e 97ff d0be
00000390: 4aa5 0dbe 69dd 95be 82f5 903d cd31 0abe
000003a0: 0cd6 5dbe f04a 583e 9d70 9abd d586 d03d
000003b0: dff7 7fbe 118d f93d 7926 1abd bcf2 fc3c
000003c0: 8ee7 b1be 8194 17be ac14 7d3e 3999 653e
000003d0: 986d f1bd 322d a6bd dfb5 a5be c784 d9bd
000003e0: e6e5 073e 09b1 1f3e 9de0 2b3e cd0d 13bd
000003f0: c1ce bb3d 4fdb 96be cdb9 cfbd 130d bbbd
0.2500893 -0.11607312 0.24970226 -0.119160496 -0.11117782 0.026484227 0.03702309 -0.11226911
0.038030792 -0.24920526 -0.3690447 -0.41616482 0.20862494 0.15730149 0.24508965 0.22439632
0.112927794 -0.14142 0.24203272 0.3303076 0.0021401779 0.08013394 0.10964512 0.1074098
-0.0727702 -0.074589334 -0.09903547 -0.039093036 -0.35814327 -0.5335041 0.1120368 -0.017867463
0.23096465 -0.35682392 -0.22036317 0.1493332 0.05673272 0.23361515 -0.24236615 0.1858226
-0.17348517 -0.11258458 -0.007435955 -0.17288682 0.21600424 -0.41570905 -0.14684899 0.27700484
-0.3758404 -0.022272337 0.047210053 0.011271655 0.05689581 -0.26784214 -0.14011957 0.076605454
0.1544867 -0.02845281 0.015079083 0.10085259 0.23271045 0.009082676 0.025881425 0.2314503
-0.103868164 -0.18160467 0.12717584 -0.076153584 0.032541417 -0.228472 -0.12675816 0.3628845
0.2697871 0.0044625546 0.09642546 0.17374891 0.21283902 0.32220802 -0.503231 0.04445629
-0.07814222 0.04216538 0.15499648 -0.23270655 0.14869383 -0.5329923 -0.46445554 -0.111130595
-0.05484841 0.11403875 -0.09881598 0.053961415 0.2611546 0.4474167 0.10259309 0.043774255
0.12031549 -0.12772427 -0.21318425 0.05692068 0.06618012 0.2103969 -0.16121398 0.065689646
-0.053422373 -0.04225721 0.31201905 0.021873588 0.23889454 -0.058440425 -0.39885712 0.41423923
-0.13707997 0.13529377 -0.2135173 -0.03121004 0.000492394 -0.2974306 0.118081294 -0.26911205
-0.2723203 0.36891466 0.14071953 0.25519133 -0.18931577 -0.37419114 0.13452931 -0.12312106
-0.42434287 -0.0012547021 0.14455785 0.25100183 0.13145213 -0.087557755 0.21606523 0.15942846
-0.07850312 -0.14879559 -0.13952841 0.10789669 -0.06563549 -0.018138343 -0.075370215 0.0394936
-0.236753 0.19937402 -0.5580068 -0.09858583 0.4354837 -0.1539673 -0.20964336 -0.040667247
-0.042678695 -0.13529693 -0.068767354 -0.41466096 0.01674489 0.2954482 0.23168096 -0.2701527
-0.1202474 -0.38936022 0.06405061 -0.1461166 -0.28553036 0.095377974 0.4738111 0.0763351
-0.29052725 -0.31648123 -0.25471455 0.010048831 -0.45473307 0.34380546 0.22972383 0.04411796
0.020745924 -0.3754929 0.101636335 0.23660864 -0.2208818 -0.21927221 -0.12552966 -0.024265407
-0.03488487 0.20029174 0.05992751 0.22385974 -0.11385012 0.32599434 0.1592826 -0.403368
0.27434525 -0.12436545 -0.5168335 -0.05216198 -0.50646085 -0.32570574 0.15922938 -0.036773138
-0.46451944 0.080055095 -0.1497516 -0.39711645 -0.36160758 -0.6784735 -0.43217754 -0.8497649
-0.10979741 0.32000864 0.14453875 0.17871931 -0.06277877 0.22161824 0.2737038 -0.17521326
0.10092931 -0.13216512 -0.035720315 -0.12298874 -0.044516172 0.235826 -0.1777635 0.44171748
0.16231775 -0.18090484 0.31536347 -0.4082 -0.13832584 -0.29270485 0.07078077 -0.1349556
-0.21663684 0.21122336 -0.075410105 0.10181967 -0.24996899 0.121851094 -0.037634347 0.030877464
-0.34746975 -0.14802743 0.24714917 0.22421731 -0.117884815 -0.08114089 -0.3236532 -0.106210284
0.13271293 0.15594877 0.16784902 -0.035901833 0.091702946 -0.29464194 -0.101428606 -0.09133353

convs.1.bias f4 [8]
00000000: 4271 00be 3949 e73c 60ee 093e 4769 643d
00000010: 006f 323e d7ff e8bd e1bb 3d3d 652e 45be
-0.12543204 0.028233157 0.13469839 0.055764463 0.17425156 -0.113769226 0.046321753 -0.1925598

convs.2.weight f4 [16, 8, 3, 3]
00000000: 3c0c 93bd b510 0dbe 847d f4bc 914f ba3c
00000010: 697e bcbd 14f9 aebd eba7 c0bd 9488 9d3d
00000020: b49c 85bd 12d2 b5bd 77a0 0fbe 2271 efbd
00000030: ce96 56be d08e 5bbe 4c30 81bb ddb9 2fbd
00000040: 05ef eabd db6c cebd 6e70 e33c 5d4e 8e3c
00000050: e7cb 8e3d 64e6 55bc 0f6d 813b f86d 4abd
00000060: 9912 f1bd 0b51 3bbe 439a c4ba 24f1 86bd
00000070: 0c8a 273c 40d1 13bd 734c 1fbe 1543 d1bd
00000080: 9386 25bd fb66 a8bd c3f4 24be 2347 cfbb
00000090: 1a3f 5cbd d500 9cbd 7d61 9f3b 2a59 e4bc
000000a0: 0ce1 a7bd f446 453d 3522 b53a 7211 45bd
000000b0: 2c58 84bd 9ec2 09be 8d81 953d d95d b7bd
000000c0: 33d3 e1bd 8705 713d fedb 933b 49c2 773a
000000d0: 92ab 60bd e20a a6bd d39b 5cbc cc68 633c
000000e0: 5ba3 01bd ad0f d7bd 225c 803d 65d9 45bd
000000f0: 116c 453d 45d9 aabc f94a 043d 9110 36b9
00000100: 8ce2 f4bd 398f 9b3d 8f5e 8dbd 21b6 1abe
00000110: a702 38bd 16fb 20be eac5 b6bd 3651 c6bd
00000120: 9849 9fb9 e05b 4b3e 38b2 823e 508b 0fbd
00000130: 2633 023e 789d adbe 77de 4f3e ddcf 4e3d
00000140: 6a7c 05bf f439 3d3e cd9b 043b 43f3 0abe
00000150: 6630 8f3b e326 883e 856f 1bbd 5f2e e4bd
00000160: e53e 0fbd 5df3 c23e 02b9 d5bd 2750 c0be
00000170: fd9d 26be 3c92 f73d 9326 333d 7de6 253d
00000180: ebe1 e2bc c062 203e bbf7 70bd b692 1cbe
00000190: 38a6 ed3c 278d f1bd c745 fbbd 3132 473e
000001a0: 755e 5abe ece0 fd3d 013d f0bd a539 c63e
000001b0: 4f74 40bd 9815 91bd 68ad 4cbe a874 bc3d
000001c0: 925a 6cbd 67b4 46be 8ccb 023d 20f9 4b3e
000001d0: ebb5 a83d 5a93 1c3e 3aa1 ec3c a987 353e
000001e0: 365b ae3e 6920 59bc 9677 d53e 05eb 93be
000001f0: 51f6 3e3e a229 0bbf ee74 543e b408 c1bd
00000200: ecb5 55bd 57dd b0bd 0675 d33b c6f6 7b3e
00000210: 05db 2f3e d9b4 90be e309 f0bd 0946 b0bc
00000220: ae75 983e e097 aa3e 6ba5 403e d8bd 753e
00000230: 30c6 4d3c f19b 9b3c 62c6 80bd 7aa8 88be
00000240: 8401 233d 70b8 bfbd 250b c83b 1fa2 7cbc
00000250: 0e53 b43c bd5d 09be e70e efbd 5504 ce3d
00000260: f955 733d f558 6fbc 990f 82bc 4399 97bd
00000270: b973 ad3c 783e 04be 8bf6 9fbc 8975 0d3a
00000280: c537 063d f4d4 aabd f903 15be bf38 babc
00000290: b6cc 2cbe 5224 1cbe 52d4 e4bd 81bb e0bd
000002a0: 3e15 c4bd 7890 debd 153c ebbd ea7d 22be
000002b0: 30b3 4a3d 2f7b 8dbd e20f a3bd 5f73 7ebc
000002c0: 70af 0dbe d807 d23d fdd5 c63c 8350 cebd
000002d0: e0c5 22be 0f22 e6bd c647 0abe c176 65bc
000002e0: 61a1 f8bd 4858 b2bd ff60 3e3c 508e 9dbd
000002f0: 904e f8bd 8a0d d2bd 533b 183d ee7f f73b
00000300: c391 4bbd 4145 eabd 67e4 41bd 0a0c 223d
00000310: 9c35 05bd df97 12bd c88e b5bd dbc2 ffbd
00000320: 643c 2fbc 5578 77bd bcb8 e9bd 55ef 7c3d
00000330: 0cb2 ff3b d3d5 f3bd ba97 4dbd c8a6 9bbd
00000340: 0762 ebbd e924 033c 33c2 12be 94f4 4f3d
00000350: 134c 23be 3d95 513d 9ea5 97bd 15ed a1bd
00000360: bb41 e23d 9c7b 62be 6a93 a63d 7cad c1bc
00000370: 379e 2f3d 174d 9abe 326c 11bd c14c 5abe
00000380: 6836 c13d d4d8 59bd de09 a63d f6af 42be
00000390: 0c9b 7b3d 0017 8dbd 0699 0f3e e63f d1bd
000003a0: 5bab 43be 0e8b 1abe c819 c4bd 40a4 0cbe
000003b0: ed24 95be 187d b7be 0b17 a9be 8e4f 34be
000003c0: 4356 52be 1eaa 93be 5568 7fbd 8d21 a5bd
000003d0: afbb debd 9dc8 adbd 7458 80ba b270 f33d
000003e0: 2880 c4bd 5859 d7ba ea9b bf3c 92cd cbbb
000003f0: 913d 9cbe 8c6b 2b3e acb8 2abe 03de a2be
-0.07180068 -0.13775904 -0.029845007 0.022743018 -0.09203798 -0.08543602 -0.09407028 0.07692066
-0.065240294 -0.08877958 -0.14026056 -0.116915 -0.20955965 -0.21441197 -0.003942525 -0.042901862
-0.114713706 -0.10079356 0.027763572 0.01737135 0.06972485 -0.013055418 0.0039497684 -0.04942128
-0.11771125 -0.18292634 -0.0014999587 -0.06588963 0.010225784 -0.03608823 -0.15556507 -0.10217873
-0.040411543 -0.08222767 -0.16108994 -0.006325619 -0.053771116 -0.07617346 0.0048639164 -0.027874548
-0.08197221 0.04816337 0.0013819399 -0.04811234 -0.0646213 -0.13453147 0.073001005 -0.08953447
-0.11026611 0.058843162 0.004512309 0.0009451253 -0.054851122 -0.081075445 -0.013464886 0.013879966
-0.03164993 -0.10501037 0.06267573 -0.048303027 0.048198763 -0.020855555 0.032298062 -0.00017363044
-0.11957273 0.07595677 -0.06902801 -0.15108539 -0.044924404 -0.15720782 -0.08924468 -0.096834585
-0.00030381675 0.19859266 0.25526595 -0.035044968 0.12714824 -0.33909202 0.20299707 0.050491203
-0.52142966 0.18479139 0.0020234466 -0.1356936 0.004369783 0.26592168 -0.03794815 -0.11141657
-0.03497209 0.38076296 -0.10435678 -0.3756115 -0.16271205 0.12088439 0.04373796 0.040503014
-0.027695617 0.1566267 -0.058830004 -0.15290341 0.029009923 -0.11794501 -0.12269168 0.1945274
-0.21325095 0.12396416 -0.117303856 0.38715854 -0.04698592 -0.07084197 -0.19988024 0.09201938
-0.057703562 -0.19404756 0.0319324 0.19919252 0.08237823 0.15290585 0.028885473 0.17727531
0.34053963 -0.013252356 0.416928 -0.28890243 0.1864865 -0.543604 0.2074773 -0.09425488
-0.052175447 -0.08635967 0.0064531593 0.24605855 0.17173393 -0.28262976 -0.11720636 -0.02151777
0.29777282 0.33318996 0.18813102 0.23998201 0.012559459 0.018995257 -0.062878385 -0.26691037
0.039796367 -0.093613505 0.006104844 -0.015419512 0.02201226 -0.13414665 -0.11672764 0.1005942
0.05940816 -0.014608611 -0.015876578 -0.07402279 0.021173345 -0.12914455 -0.01952674 0.0005396237
0.03276803 -0.08341399 -0.14552297 -0.022732137 -0.16874966 -0.1524823 -0.111733094 -0.109732635
-0.09574364 -0.10867399 -0.11486069 -0.15868345 0.049487293 -0.06908261 -0.07962014 -0.015530436
-0.13836455 0.10255402 0.02427196 -0.1007395 -0.15895796 -0.11236965 -0.13503942 -0.014005364
-0.121401556 -0.087082446 0.011619805 -0.076931596 -0.121243596 -0.102564886 0.03716595 0.007553092
-0.049699556 -0.114389904 -0.047336962 0.039562263 -0.03252183 -0.035789367 -0.08865124 -0.124883376
-0.010695551 -0.060417492 -0.114121884 0.061751682 0.0078032073 -0.11906018 -0.050193526 -0.076001704
-0.114933066 0.008004406 -0.14331894 0.050770357 -0.15946989 0.051167715 -0.07404636 -0.07906548
0.11047693 -0.22117466 0.08133586 -0.023642294 0.042875495 -0.3013694 -0.035503574 -0.21318342
0.09434205 -0.0531853 0.08107351 -0.19012436 0.06142716 -0.068891525 0.14023218 -0.10217266
-0.19108336 -0.15092108 -0.0957523 -0.13734531 -0.29129735 -0.35837626 -0.33025393 -0.17608473
-0.20540719 -0.28840727 -0.06235536 -0.0806304 -0.108756416 -0.084855296 -0.0009791986 0.11886729
-0.09594756 -0.0016429825 0.023389775 -0.0062195743 -0.3051572 0.16740245 -0.16672009 -0.31810006

convs.2.bias f4 [16]
00000000: 679a d7bd d0b5 0cbd e7ad cfbd 7562 2bbe
00000010: 727b 48bd ed8e c4bb b386 07be b5d4 e5bd
00000020: 84dc 1fbe 2a73 4fbe 18b7 b7bd 15f6 2fbe
00000030: a257 93be f34e 28be fb32 fdbc ec7d 2cbe
-0.10527497 -0.034353077 -0.10140591 -0.16736777 -0.04894585 -0.0059984834 -0.13234977 -0.11222211
-0.15611464 -0.20258775 -0.08970469 -0.17183717 -0.28777796 -0.16436367 -0.030908098 -0.1684491

convs.3.weight f4 [32, 16, 3, 3]
00000000: 5be6 eabc e3df 23bd 91bd 7dbd d2f9 243d
00000010: bee2 833c ef1f 71bc 72b3 85bd 8291 dbbc
00000020: 7478 d1bd 5b8f 1d3c f3f7 1abe 7464 aabe
00000030: f599 36ba 345d c5bc 60fa 96bd 2a2b 463b
00000040: 9de7 87be e7f0 9abb 6e55 68bd bb97 cbbc
00000050: 391f 39bc 6f3c c13d 8d17 b43c 3121 ac3d
00000060: 6b43 c63d 0f03 00bd c346 463d 0d49 803d
00000070: 3466 a5bd 40fa 42be 9698 5fbe 46ef b1bd
00000080: 8316 14be 09f4 adbd e340 c6bd 6dba 16be
00000090: 4db3 3b3c 5025 c4ba f662 b9bd 06f7 95bd
000000a0: 62b1 a5bd 1463 033d b591 d2bd bede b9bd
000000b0: bd09 003d 724a 4b3e fb78 71be a16e f3bd
000000c0: 4268 12be c564 973d 5658 85be 8e06 99bd
000000d0: ccf7 883e 5da2 c13d b2e3 23bd aaef 36be
000000e0: af7e e9bd 7959 7abd 468e 60be a047 c2bd
000000f0: e102 833d dba8 c3bd d05f 63be fb51 0fbd
00000100: de3a 863d 9b1f b5bc 8bd4 8cbd 4f13 40bd
00000110: b899 a23a 314c 1bbd e14b 2ebc ea3e 903d
00000120: d100 e6bd df74 cebd 39c7 063e 4249 813d
00000130: b075 6c3d 8c2d debd e77a 8bbe bc8c e3be
00000140: 9b55 1abd 67a6 ac3d 8f5b 903b a693 9abd
00000150: 9098 523d 34bf a03d a7da 9a3d 126b 093c
00000160: 893f 803c 0d50 8f3c 2578 87bd 1638 20be
00000170: e325 6dbe a812 18be 1b88 43be fcad 8ebe
00000180: cc9b 303c 0ecf 89be 77f5 11be 7ea9 8f3d
00000190: 6439 673d 412f 1fbd eb84 853d 9458 af3d
000001a0: fa04 23bd 7b66 a3bb cd07 aa3d 3ea9 42bd
000001b0: ddc4 c7bc 17e8 2ebe 2564 07be 4746 94bd
000001c0: 542a 9ebd 7e05 61bd 3d89 e4bc 3aaf 52be
000001d0: b526 02be 467b a4bc c3e4 1e3c ba82 b43c
000001e0: fdcb 87bd 8969 65bd 9255 9c3c 0924 123c
000001f0: 2b6a f0bb 6f33 703c fcb5 4b3e 8997 aebd
00000200: ab16 c4bd 4e79 973c 385f 83ba bac0 67bd
00000210: 1ca1 4dbe 560e aa3e 240c 143c f698 a23d
00000220: 8fec dabc bd79 4c3d f79f 853d ef95 0cbc
00000230: e385 2cbd ace9 4ebc 2b69 51bd d11d 58bc
00000240: 6b79 403c 287d 2d3c ed9e 5abd 4a6e 7e3d
00000250: dadf a83d a7b6 19bd 48b1 1a3d b0c4 4ebc
00000260: 1417 343b c916 0abe f566 debd 17dd 9d3c
00000270: c028 e2bd f49b 47bd 88fd e63c 6121 8cbd
00000280: 51bf 16bd 36f5 b6bc 40f2 24bd d0b5 8bbb
00000290: d0de af3c 8504 8a3d c497 8dbd 0036 d8ba
000002a0: 9f3c 8bbd 70c1 f1bb a006 10bb e064 acbd
000002b0: 4219 303c 704e f43c 5733 87bd 6b39 e7bd
000002c0: 9843 aebd b505 04bd a86b 82bc 8df4 e83a
000002d0: 878a 9cbd 02a1 0a3d 968d 4dbd c35e 8bbd
000002e0: 8d6e 833d 3c62 cbbc 0667 3fbd fc44 bb3c
000002f0: f40c 8ebc 1299 a8bd cc03 9cbd 6f27 2fbd
00000300: 4993 1abd dee9 eebd c75a 04be 84e4 8c3c
00000310: f1e0 fcbd 4063 76ba ddc9 873d a1ea 60bd
00000320: e4cb e3bd 0475 75bc a6e3 1c3d f2a5 94bd
00000330: 3c5a debc 3d75 753c ad3c babc 9cc6 823c
00000340: bcc8 d33c e197 d33d 9102 a7bd 8428 6ebd
00000350: b491 9c3c 2fde 83b9 891d c1bb 2dfe b63d
00000360: 9d08 bc3c 0e86 2a3d 4c6c 9c3c 7724 ddbd
00000370: fa55 61bd 7424 a7bc db03 1cbd 13b0 60bd
00000380: a357 30bc 8812 8dbd cb6a 11bd d99d 813d
00000390: 66d0 fabc b089 c4bc 3e1a 193d d6b5 acbc
000003a0: c886 483c bb92 aabd b628 153b a5d8 d3bd
000003b0: 3898 01bd 663a c4bd 7565 14be d2a6 043c
000003c0: 0aa6 ebbd 722e 503b 8202 21bd 9709 9d3d
000003d0: 14f1 d93c 969d 263d 8306 12bd 4611 eabc
000003e0: 6e4b 783d a043 fa3c 1433 ab3c f59a 44bd
000003f0: 30c8 adbd 57e4 83bb e783 85bd ae8b 1f3d
-0.028674295 -0.040008437 -0.061948363 0.04027731 0.01609933 -0.014717086 -0.06528367 -0.026802782
-0.10228053 0.009616698 -0.15133648 -0.33279765 -0.00069656904 -0.024092294 -0.07371974 0.003023813
-0.26543894 -0.004728425 -0.056722097 -0.024852624 -0.011298948 0.09435355 0.021983886 0.08404768
0.09680828 -0.031252917 0.048407327 0.06263933 -0.08076134 -0.19040775 -0.2183555 -0.08688216
-0.14461713 -0.08493812 -0.09680345 -0.14719553 0.011456323 -0.0014964733 -0.090520784 -0.073225066
-0.08090474 0.03207691 -0.10281698 -0.09075688 0.031259287 0.19852617 -0.23581307 -0.11886335
-0.14297584 0.07392267 -0.26043957 -0.07471953 0.26751554 0.094547965 -0.04001207 -0.17864862
-0.11401116 -0.061120484 -0.21929273 -0.09486318 0.063970335 -0.09553691 -0.22204518 -0.034990292
0.06554197 -0.022109797 -0.06876477 -0.046893414 0.0012405431 -0.03791446 -0.010638208 0.0704325
-0.112306245 -0.10080885 0.13161935 0.06312801 0.057729423 -0.10848531 -0.27242205 -0.4444331
-0.037679296 0.08430176 0.004405446 -0.07547693 0.051415026 0.07848969 0.07561236 0.008387344
0.015655296 0.017494226 -0.066147126 -0.15646395 -0.23158984 -0.14850867 -0.19094889 -0.27867115
0.010779332 -0.26915783 -0.14253794 0.0701475 0.056451216 -0.038863424 0.06519493 0.08561817
-0.039799668 -0.004986582 0.08302269 -0.047524683 -0.024385864 -0.17080723 -0.13221796 -0.07239967
-0.07722917 -0.05493688 -0.027897472 -0.20574656 -0.12710078 -0.020078313 0.009698096 0.022034992
-0.066307046 -0.05600885 0.019083772 0.008919724 -0.007336875 0.0146607 0.1989364 -0.08524997
-0.09574636 0.01849046 -0.0010022884 -0.056580283 -0.2008099 0.33214062 0.009036098 0.07939331
-0.026724128 0.049920786 0.065246515 -0.008580669 -0.04211987 -0.012628954 -0.051125687 -0.013190703
0.011747698 0.010588922 -0.05337422 0.0621169 0.08245821 -0.037527706 0.037766725 -0.012620136
0.0027479576 -0.13485254 -0.10859481 0.019270463 -0.11042929 -0.048732713 0.028197065 -0.06842304
-0.036803547 -0.022333723 -0.04027009 -0.004263617 0.02146855 0.06739143 -0.069137126 -0.0016495585
-0.06798672 -0.007377796 -0.0021976605 -0.08417678 0.010748209 0.029822558 -0.06601589 -0.112902485
-0.08508986 -0.032232005 -0.015920475 0.0017773077 -0.076436095 0.033844955 -0.050183855 -0.06805184
0.0641757 -0.024827115 -0.04672911 0.022860043 -0.01734016 -0.08232321 -0.07617912 -0.042762216
-0.03773812 -0.116657004 -0.12925254 0.017198808 -0.12347592 -0.00093989447 0.06630299 -0.05491126
-0.111228734 -0.014981512 0.03830304 -0.07258214 -0.027142636 0.014981565 -0.02273401 0.015963845
0.025852554 0.10331703 -0.081547864 -0.058144107 0.019112445 -0.00025151807 -0.0058934134 0.08935199
0.022953326 0.04163175 0.019094609 -0.10797971 -0.055013634 -0.020403124 -0.038089614 -0.054855417
-0.010763082 -0.068883 -0.035502236 0.06328935 -0.03061695 -0.023991436 0.037378542 -0.0210828
0.012239166 -0.08328768 0.0022759861 -0.10344056 -0.031639308 -0.09581451 -0.14491828 0.008096414
-0.11506279 0.0031765965 -0.039309032 0.07667845 0.026604213 0.04067763 -0.03565074 -0.02857269
0.06061881 0.030549824 0.02089838 -0.04799934 -0.08485448 -0.004025023 -0.06519299 0.03895157

convs.3.bias f4 [32]
00000000: cd35 83bd d8f9 2ebe 7e12 72bd 33f4 ebbd
00000010: 451c d6bd 4598 23bc cfa8 36be c12e 2dbe
00000020: 9afd 34be 3336 e0bd d290 383e f9da 14bd
00000030: 2ce3 8abd 1193 14be 365d 50bc 609d 26be
00000040: 726a 2c3e 04c9 29be 5507 89be 13ee 75bd
00000050: 4427 15bd ba69 7cbe 3c4e 26bd d6e9 1bbe
00000060: 094a 51bd b6fc 7abe 1c4b 46be 694b aabd
00000070: f23f 893e 6203 45be d7bd e8bc ae0d b93d
-0.06406746 -0.17087495 -0.059099667 -0.11521187 -0.10454611 -0.009985034 -0.17837833 -0.16912366
-0.17674866 -0.10947838 0.18023995 -0.03634164 -0.06781611 -0.14509226 -0.012717536 -0.16270971
0.1683748 -0.16580588 -0.26763406 -0.0600415 -0.0364144 -0.24649706 -0.040601954 -0.1522592
-0.051095996 -0.24510464 -0.1936459 -0.083151646 0.268066 -0.19239572 -0.028410835 0.09035812

convs.4.weight f4 [64, 32, 3, 3]
00000000: 4304 063e 263a 8cbe 1fc1 14be 6aae 453e
00000010: 1a08 82be 373e 2c3d a72c c4bb 02d7 6f3d
00000020: cb39 203e aaf6 f83d 950c b23d 93ce ccbb
00000030: 6c5a da3c 44de 69bd 09a0 8a3d 18ca a53b
00000040: bb59 bebc b515 063d 0d01 553e d981 e43d
00000050: 7fdf 43bc a8cd f63c 12d9 a43d 326b f5bc
00000060: 8165 073d eea5 87be a52c edbe 7dbb 84bc
00000070: 5a4c 883d 4717 88bc 316f 9ebc ca04 83bb
00000080: 8fa4 6abd 2867 01bd 5ca6 86bc b18a bdba
00000090: 9fb4 4abd 9683 fd3c e4c9 ebbc d867 4ebd
000000a0: c316 21bd e812 843b f552 fb3c 63c0 1abc
000000b0: b241 aebd 4656 063e 731e 253d 9326 d2bc
000000c0: bdf9 ab3d 4f2a 8b3d b6dc 1fbd 32bd 063e
000000d0: c3ce cabc 27bd 20bd a823 133e 1998 653e
000000e0: acb9 3c3e 18e5 063e ef0a d53d 4173 703d
000000f0: 5a73 3dbe 7a1c 1dbe c3e9 87bd 4eb5 8b3c
00000100: 54ee aebc 6ab6 4cbd 07dc 43bd 140c 0a3c
00000110: 77d4 28bd 31d3 023d d7e5 f93c 1c9d 57bc
00000120: 2355 8bbd b050 183c 8582 2dbd 74d9 953c
00000130: a815 a13d 6824 65bd f3c4 c03d a521 aa3c
00000140: 3728 b4bd 4755 f7bd d109 02bd 92e5 993d
00000150: 7f62 103e 0662 d03d 06a3 b63e a44e 0f3d
00000160: e6f0 623d 3828 903e b7f5 643d 6825 36bd
00000170: af8f 0f3e 080c a93d 4a45 0fb9 f3ef 293e
00000180: f333 40bd 2c34 4dbe 93d7 cabe 9778 ca3e
00000190: dd3f 48bc 2d09 803d 8bff 553e 0ff4 53be
000001a0: d83e d73d 8b85 b0bd 1777 b93d 97db afbe
000001b0: 1257 aabd 9e86 8e3d 2f0e 5d3d 9bf4 0d3b
000001c0: c1c4 d83d 87d5 3abe 0007 d0bc 8245 07be
000001d0: a758 aebd dec2 c53c cbc0 1b3d f0ab 183d
000001e0: 9a70 c13c ddf8 bf3d 3885 77bd 4366 0ebc
000001f0: 3df9 5dba 74f2 efbc d3e5 d93e 1488 8abe
00000200: c86d 88bd 3a61 00bd d90d 4d3d 01f3 a73d
00000210: 0ac8 a7bb b0fe 403c 496c 6abe ee5d 8c3c
00000220: e436 133c 89c2 a0bb 6071 3e3c f8c4 e73c
00000230: cf2f c6bb 4b2d b33b f35d 963c 9a44 0c3d
00000240: 8f26 cfbd ba57 8ebd 86de 33bc c393 dabc
00000250: 6f92 963d 2536 833d 805f 05bd 0c80 97be
00000260: da2f bebe e943 963d 060e 243b 9dc1 3abd
00000270: 2f8d 223d 6ca5 573d 862f e33c a1e7 8abd
00000280: e3c2 573b 370d 0b3c c918 25be a1a5 b0be
00000290: b639 453d dfdc 963d 5461 a5bd 69a8 183e
000002a0: 06ea b9bc 46a3 8ebd 0b76 32be a644 a73c
000002b0: 986f 1abd 7659 94bd 801c 1a3d d566 45bd
000002c0: 7c70 adbc 1102 ddbc 1e1f 01bd eefe 5e3d
000002d0: 23dc f53c bdf1 39bd 1927 d43c 85f9 61bd
000002e0: 01d4 8ebd a05c 05bd 4681 87bb 0978 2e3c
000002f0: a4ba c43c 037d 8b3c e7af 14bd edae 323d
00000300: 780b 823b 928e 723c 2c57 90bc 5afe 51bd
00000310: 7ccf c83d 4b27 24be 63bc 2fbe 6f28 2b3e
00000320: df56 4f3d 5325 c83d 439b 383e 61ee 5dbe
00000330: bf04 d83d 5680 d439 6674 1dbe b372 a13a
00000340: 97bf 903b a7b9 a33d 5c14 3e3d fda6 203d
00000350: 2ecb 3b3c 06ed 37bd 425e 4ebd 4052 753d
00000360: 9982 1c3b a922 c03d c432 513d 4563 753e
00000370: 336b 40be d494 24bd b3f7 68be 0674 053d
00000380: 01ff 80be 3e6e c1bc 080f 8b3c 0854 4fbd
00000390: 22fa c3bc b29b aabb 14a1 2cbc caaf 6dbd
000003a0: aec3 e8bd 5036 29bd 5dfe dbbb 48f9 753d
000003b0: fd89 58bd be62 0b3d ef48 993d d873 2e3d
000003c0: 0646 1b3e 094b 1bbd c287 043d 94aa 36bb
000003d0: 1635 243c b4a3 31bb a0ba de3d 4f82 043d
000003e0: f854 90bd edfe 183d 6b61 07be 0241 303d
000003f0: 4ddf 4c3d e86c 693e 64c9 f43d 7323 3f3d
0.13087563 -0.27388114 -0.14526795 0.19304815 -0.25396806 0.04205152 -0.0059867683 0.058554657
0.15647046 0.121564224 0.08693806 -0.0062502115 0.026654445 -0.057096735 0.067688055 0.005059492
-0.023236146 0.032735545 0.20801182 0.11157579 -0.011955141 0.030127361 0.080492154 -0.029958341
0.033055786 -0.26493782 -0.46323124 -0.016202683 0.06655188 -0.016612662 -0.01934013 -0.0039983736
-0.05728584 -0.031592518 -0.016436748 -0.0014460889 -0.04948866 0.030946534 -0.028782792 -0.050392002
-0.039328348 0.004030574 0.030679205 -0.009445283 -0.08508624 0.13118848 0.04031224 -0.02565316
0.08397243 0.06795179 -0.039028846 0.1315811 -0.024756795 -0.03924289 0.1436907 0.22421302
0.18430203 0.1317333 0.10402476 0.058703665 -0.18501034 -0.15342894 -0.066363834 0.017054226
-0.021353878 -0.04997865 -0.047817256 0.008425731 -0.041218247 0.03193969 0.030505104 -0.013160016
-0.06803348 0.009296581 -0.0423608 0.018292166 0.07865459 -0.055942923 0.09412565 0.020767996
-0.08796733 -0.12076812 -0.031747643 0.0751449 0.14100073 0.101749465 0.35671252 0.034987107
0.05540552 0.28155684 0.055898394 -0.044469267 0.14019655 0.08254248 -0.00013663355 0.1659544
-0.046924543 -0.20039433 -0.39617595 0.39545128 -0.012222257 0.0625175 0.20898263 -0.2069857
0.10510033 -0.08619221 0.09055918 -0.3434722 -0.083173886 0.0695927 0.053968605 0.0021660689
0.10584403 -0.18245517 -0.025393963 -0.13210109 -0.08513003 0.024140771 0.03802566 0.037273347
0.023613263 0.09373639 -0.06042978 -0.008691373 -0.00084676204 -0.029290415 0.42558154 -0.27056944
-0.06661564 -0.031342722 0.050062034 0.08200646 -0.005120282 0.011779472 -0.2289287 0.017134633
0.008985255 -0.004906003 0.01162371 0.028292164 -0.0060481797 0.005468046 0.018355345 0.03424511
-0.10114776 -0.06950326 -0.010978347 -0.026681786 0.07352149 0.064068116 -0.03256178 -0.2958988
-0.37145883 0.073371716 0.0025032773 -0.0455948 0.039685424 0.052647993 0.027732622 -0.06782461
0.0032922558 0.008487037 -0.16122736 -0.34501365 0.04815074 0.073663466 -0.080752045 0.14907993
-0.022694599 -0.06964736 -0.17427842 0.020418476 -0.03770408 -0.07243626 0.037624836 -0.04819377
-0.0211718 -0.026978524 -0.031523816 0.05444234 0.030012196 -0.045396555 0.02589755 -0.0551696
-0.0697403 -0.032559037 -0.0041352836 0.010648736 0.024014778 0.017027384 -0.036300566 0.043623853
0.0039686523 0.014804499 -0.017619692 -0.05126796 0.098051995 -0.16030614 -0.17161708 0.16714643
0.050619956 0.09772744 0.18027978 -0.21672966 0.1054778 0.0004053141 -0.15376434 0.0012317508
0.0044173705 0.07994395 0.046406135 0.039221752 0.011462016 -0.044903778 -0.05038286 0.059892893
0.0023881553 0.09381611 0.051073804 0.2396365 -0.18790893 -0.040180996 -0.2275074 0.03258135
-0.25194553 -0.023612138 0.01697494 -0.050617248 -0.023922984 -0.0052065486 -0.010536451 -0.058028974
-0.11365448 -0.041311562 -0.006713672 0.060052186 -0.05286597 0.034029715 0.07484614 0.042590946
0.1516343 -0.037913356 0.03235603 -0.0027872669 0.010022422 -0.0027105631 0.1087544 0.032350834
-0.070474565 0.03735249 -0.13220756 0.043030746 0.050017644 0.2279545 0.11952475 0.046664666

convs.4.bias f4 [64]
00000000: a935 abbc 2806 76bd af4f b5bd 828e c5bd
00000010: 3479 b9bd d5c4 e1bc 112e 00be b15b 52bc
00000020: c1cd aebd dfa5 e7bd 2aec 4abd 9792 42be
00000030: d9cb 09bd 0606 c7bd 7fef e6bd f60e 8fbd
00000040: e4ef d8bc 5dc7 17bc 24c3 a5bd 799c 31bd
00000050: 9feb 53bd b558 31bd 39ed 32bd d5b4 9cbc
00000060: 0307 37be 7035 c5bd 15f4 4abd f3df babd
00000070: c389 efbc caee b6bd 2654 36bd 5f70 0a3c
00000080: cc73 d1bd 3799 5d3a 8ad5 38bd 10c0 bdba
00000090: 65d2 02bd 395e e43c d528 fcbc 8826 e6bd
000000a0: 68da fbbc e401 70bd a1e2 26be 6b7a a2bd
000000b0: cdb7 06be e19a 8f3c 5aa1 ddbd 8912 2bbd
000000c0: 7908 e3bc cd51 36be 1419 88bd a22d abbd
000000d0: cc44 cabd fb64 0bbe a865 a8bb e994 c5bd
000000e0: bc1a 42bd 8b4a 5d3c 0c80 c9bc 9575 29bd
000000f0: 45d1 78bd 31fe 97bb bcf2 ecbd 5ae6 12bc
-0.02089961 -0.060064465 -0.08853089 -0.09646322 -0.09056321 -0.027559677 -0.12517573 -0.012839244
-0.08535338 -0.11310934 -0.04954163 -0.19001232 -0.03364167 -0.09717946 -0.11276149 -0.069852754
-0.026481576 -0.0092638405 -0.08093861 -0.043362115 -0.051738378 -0.04329749 -0.043683264 -0.019129196
-0.17873769 -0.09629333 -0.04954918 -0.09124746 -0.029240495 -0.08932264 -0.044513844 0.008449643
-0.102271646 0.0008453312 -0.04512552 -0.0014476795 -0.03193893 0.02787696 -0.030781189 -0.11237818
-0.030743793 -0.058595553 -0.1629739 -0.079335056 -0.13156052 0.017529907 -0.10821791 -0.041765723
-0.027714001 -0.17804642 -0.06645408 -0.08358313 -0.09876403 -0.1361274 -0.0051390715 -0.09647543
-0.047388777 0.013506542 -0.02459719 -0.0413719 -0.06074645 -0.0046384563 -0.115697354 -0.008966053

convs.5.weight f4 [128, 64, 2, 2]
00000000: 673f a53d a844 50bd 87a8 3fbe 7f05 4dbe
00000010: b25d 08bd 71d9 d3ba 4d2a e5bc 4106 723c
00000020: b635 6e3d 10f1 a53c 4ee0 4bbd 98d9 d33c
00000030: d48b 593d 6c20 8e3d fae1 8e3d f578 9bbc
00000040: 834e 54bd 8ca7 89bd 2292 55bd e247 13bc
00000050: 3695 09be 626d 003e c9a2 e4bd 300e d23d
00000060: 32c3 23bd 0288 433d 4a82 11bc 796c 27bd
00000070: f7ed 8c3a b1f4 053d c3fd 333d 4233 a33b
00000080: 26a0 78be b49e 803c db7d 213e df77 fc3d
00000090: eb5b 3fbe ba58 24bd 122e 35be 95f8 d2bd
000000a0: 7f45 0bbf 1bba 813d 6663 b6bd 5f20 3cbd
000000b0: 8eaf 173d 59ff f73d 26a6 db3d 30e0 56be
000000c0: 7be8 10bd 9ab3 9dbd 4b29 4cbe 6b05 b33e
000000d0: 1ffa fe3d e90a 1a3e a836 883d 9b5c 0f3d
000000e0: d961 90bc 0a0c 36bd 14d6 8fbd edd0 b33d
000000f0: 470c 9f3d a0b5 00bd fa63 54bd dda3 95be
00000100: ee62 ef3b 753c 1bbd 57cf 5fbe dfc0 69be
00000110: e8ac 813d ba30 8f3d 682b 9ebc 5af2 49bd
00000120: d496 6f3c f542 0d3e bb8b 37bd bd82 54bd
00000130: 70fc 343e ebf3 8ebc dabf 24be bd2c 7d3e
00000140: 51b6 803e 36de 133e e010 403e 140a c43d
00000150: 0ec2 003e 2d44 28be bfbb 9cbd bb8d a2be
00000160: 943c c5bd 8cbd 9b3d d9fa 923d eba2 8e3e
00000170: 7aa0 f7bd 381e 423c 5cb0 163d 6841 1fbc
00000180: ab77 bcbc 0abd 083e a834 73be 9f76 b03d
00000190: 93fb 39bb 40a5 03bc 929c 0b3d cfa4 873d
000001a0: ea5e 793d 447e d03b 7a34 953d 9dec 1c3d
000001b0: dc45 61bd 31c3 8b3d 7066 f53d 1549 633d
000001c0: 29f2 10be e53c 07bc 6e11 053d 617c a3bd
000001d0: e56b 0a3d 653e 423d 237a edbb d5ad 90bd
000001e0: 95d4 02bd 4a36 14be bb58 70be 294e b4be
000001f0: b0c6 a43d fd1e a33d 0038 4abb cac9 2e3e
00000200: 934c 31bc 005c 943d 64e7 45bd 870f bcbd
00000210: f060 41bd ad3a 01bd 3d1e 5abd b20b 23be
00000220: 4b12 08bd ead5 583e bc02 c03d 3f07 2b3c
00000230: 3805 dcbc bed5 14bc b465 b5bc 60d6 33bd
00000240: b2a6 50bb ae43 bc3c 697f e3bc ab88 f4bc
00000250: a16d adbd c81d 103d 4787 953d f140 db3c
00000260: bc1d f4bb 1f6c efbc e6d6 a3bc d29c f8bb
00000270: b4e2 c03c f525 1f3d f53d efbc 6db5 8abc
00000280: a3e8 7c3d dfff 203e 749d 00bc 72d4 ec3c
00000290: 9210 b33d b7d8 763c 218c 2a3d af89 78bd
000002a0: 03a4 2f3e 8442 18be 54a6 0fbe 7ef0 9b3c
000002b0: b9f1 4abd e412 ab3c 8daa 373d f1d4 e0b9
000002c0: 9c91 873d ca03 583d 83a5 5dbc 4b8a fa3c
000002d0: 1a40 cdbd fb63 4ebe 2733 fabd 7f53 9b3e
000002e0: 3e38 323d 4d82 953c c7eb 663d c5ed f43d
000002f0: 1cf2 11bd 83d1 b53c c926 5e3c 15c9 9f3d
00000300: fe4c 3abe c7c1 ba3c d3f9 fe3d 8edb ca3c
00000310: 8868 55bd c5eb 613d c881 58bd 2f5a 88bd
00000320: 9e5d 513d 3c7a a53c 2c1f 333d a71e 613b
00000330: 02c8 0c3e e4b1 b93d a7af bf3d 91ce c63d
00000340: 24af 59bd 9487 153d ae9e 96bc d4fb f6bc
00000350: 8956 21be c910 59bb 3f80 4cbe 4b73 56be
00000360: 2c81 8abd aff7 ba3e faa4 8b3d bfb7 f8bc
00000370: 7420 2d3d e404 bf3c af9d 26bd 6a01 c43c
00000380: 4dc8 68bd 5736 463e 59ad 16be b34d 723e
00000390: 2f02 4abd 0988 c83d ae4d 46bd e7e1 a7bd
000003a0: 184a 9abb ed71 05bc fb25 c5bb 4438 513d
000003b0: b2d9 eb3c a12a 53bc abd2 3d3d 8c48 fd3c
000003c0: 123e 983d fca1 023e d036 8b3d 9c46 a23c
000003d0: a462 0b3e d84c 883e f055 6abd 0fd0 993c
000003e0: 8ae2 0f3d e345 ff3d f9d1 203d fc1c 4f3c
000003f0: 804c c73d 8819 d63c abef 5b3e 1da5 8dbd
0.08068734 -0.050846726 -0.18716632 -0.20021628 -0.03329248 -0.0016162825 -0.027974272 0.014771999
0.05815669 0.02025655 -0.04977446 0.025860593 0.053111866 0.06939778 0.06976695 -0.018978575
-0.051832687 -0.0672141 -0.052141316 -0.008989306 -0.13435826 0.12541726 -0.11163861 0.10256612
-0.039981075 0.04773713 -0.008881161 -0.040874932 0.0010752071 0.03270406 0.043943178 0.0049804756
-0.24279842 0.015700676 0.15770666 0.12327551 -0.18687408 -0.04012368 -0.17693356 -0.103013195
-0.5440292 0.06334325 -0.089056775 -0.04592931 0.037032656 0.121092506 0.1072505 -0.20983958
-0.03537796 -0.07700272 -0.19937627 0.3496507 0.124500506 0.15043224 0.0665105 0.035000425
-0.017624782 -0.044445075 -0.07023254 0.08780084 0.077660136 -0.03142321 -0.051853158 -0.2922658
0.0073054945 -0.037899453 -0.21856438 -0.2282748 0.063318074 0.06991716 -0.019307807 -0.04930339
0.014623363 0.13795073 -0.04481099 -0.051882494 0.17674422 -0.017450294 -0.1608881 0.24724098
0.25139096 0.14440235 0.18756437 0.09572235 0.12574026 -0.16432257 -0.07652997 -0.31748757
-0.09630695 0.076045126 0.07176752 0.27858672 -0.12091155 0.011848025 0.036789283 -0.009720184
-0.02300628 0.13353363 -0.23750556 0.08616375 -0.002837871 -0.008035004 0.034084864 0.066232316
0.060881533 0.0063627083 0.072854 0.03831159 -0.054998264 0.06824339 0.11982429 0.05548962
-0.14154877 -0.0082542645 0.032487325 -0.07982708 0.033794302 0.047422785 -0.007247226 -0.07064406
-0.031941015 -0.14473835 -0.23471348 -0.3521588 0.08045709 0.07964895 -0.0030856133 0.17069164
-0.010821479 0.0724411 -0.048316374 -0.09182649 -0.047211587 -0.0315501 -0.053251494 -0.1592243
-0.03322057 0.21175352 0.093755215 0.010438739 -0.026857957 -0.009084163 -0.022143222 -0.043905616
-0.003183764 0.022981491 -0.027770715 -0.029850325 -0.08468176 0.03518465 0.07301193 0.026764365
-0.0074498337 -0.02922636 -0.019999932 -0.007587054 0.0235456 0.038854558 -0.029204348 -0.016932214
0.061745297 0.15722607 -0.00785004 0.028909896 0.08743395 0.015066317 0.041637544 -0.06067818
0.1715241 -0.14869124 -0.14028293 0.019035574 -0.04954693 0.020883031 0.044840384 -0.00042883263
0.0661957 0.05273799 -0.013528231 0.030583521 -0.10021992 -0.20155327 -0.12216788 0.3033714
0.043510668 0.018250609 0.0563772 0.119594134 -0.035631284 0.02219463 0.013559052 0.07802025
-0.18193433 0.022797478 0.12449994 0.024762895 -0.052101642 0.055156488 -0.052858144 -0.06657826
0.05111467 0.020199887 0.0437309 0.0034350546 0.13748172 0.09067133 0.09359675 0.09707368
-0.053145543 0.03650625 -0.018386211 -0.030149378 -0.15755667 -0.0033121577 -0.19970797 -0.20942418
-0.06762919 0.36517093 0.06818576 -0.030361054 0.042267278 0.023317762 -0.040677723 0.023926456
-0.056831647 0.19356667 -0.14714564 0.23662452 -0.04931849 0.09791572 -0.048413925 -0.08197384
-0.0047085397 -0.008144838 -0.0060164905 0.05107905 0.028790329 -0.0128885815 0.046343487 0.030918382
0.07433714 0.12757105 0.06797564 0.01980906 0.13611847 0.26621127 -0.057210863 0.018775968
0.035128154 0.12464502 0.039262746 0.012641188 0.09731388 0.026135221 0.21478145 -0.069162585

convs.5.bias f4 [128]
00000000: 15e6 ffbd 18ab 88bd f76e 2bbd cbba 81bd
00000010: 6ab2 9cbc b6b7 5d3d 19e6 383d 78df b1bd
00000020: 97e2 ccbd 4a6f fabd 150d 8f3c 7b3c 43bd
00000030: 83ac b2bd 0199 d8bd baef 61bd ffd6 a3bd
00000040: 0408 c3bd c1e7 c43d 4519 d0bc 3834 a3bd
00000050: 80e3 12bd 6a7b 9fbd bf4e 15bd b489 8fbd
00000060: 31b6 56bb 90a6 c8bd 5eb9 54be 93e0 96bc
00000070: 62dd 00be 89bc 623c 453f ceba b6a1 41bd
00000080: 7a5e d93d 9fc8 a4bd 39c2 e7bd a555 ae3b
00000090: 20f3 9f3d 6393 8bbd 9726 55bd f721 97bd
000000a0: 68f0 e8bc e1df a43b 4658 b7bd d146 abbd
000000b0: c7b9 babb 388b 87bc a722 a9bd 5f2a 0dbe
000000c0: 9161 e0bc 8a96 6e3c ff28 d4bd e50e 86bd
000000d0: 77d4 51bd ceda a83d 9ab6 543d c20e 8d3c
000000e0: dbd7 b5bd f24a 0abe 4e14 d0bd 55a7 02bd
000000f0: fdfe d5bd 752d 2dbc e43d f7bd 023a 72bc
00000100: 4029 073e 41df e93d 6452 05be 25c0 adbd
00000110: ce6b 993d 934f 413e 7c78 abbd 1748 5dbd
00000120: 96e6 f8bd 914e a43d ef3c d1bd d1f7 42be
00000130: 77d1 733d 8372 1ebd e257 2abd b4de b6bd
00000140: 4289 723c ec20 8abd 1449 a4bd a987 04be
00000150: d54b 00be 159a b3bc acef 60bd 8a6b 59bd
00000160: 55a9 eaba 742c 65be bd36 513b b208 18be
00000170: c380 cdbc 3544 103e 87b8 05be 513a adbd
00000180: b120 ebbd 7867 d83c f56d e0bd a60b e63b
00000190: a844 94bd fe37 3abc 5c43 d4bd 4ba1 b2bd
000001a0: 7a43 11be 4b5b d63d e421 d2bd 3953 dbbd
000001b0: 5c02 0fbd 0fcd 92bd 0dbc 8ebc 1aa4 b7bd
000001c0: 056f 043d 45b8 913d a4ab 5dbc 48b9 ccbd
000001d0: deed 0cbe e5ad c6bd 0c48 cfbd 434b b7bd
000001e0: c627 55bd 64bf ffbd 16f8 c3bd 6c2f 58bd
000001f0: dbe4 c2bd c2cd 82bd a070 c4ba aa95 99bd
-0.124950565 -0.066732585 -0.04185387 -0.06334456 -0.019128043 0.05413028 0.045141313 -0.086852014
-0.10004156 -0.12228258 0.017462293 -0.0476651 -0.0872431 -0.10576058 -0.05516026 -0.079999916
-0.09523013 0.09614516 -0.025402674 -0.07968944 -0.035861492 -0.07787211 -0.03645205 -0.07008687
-0.0032762403 -0.09797394 -0.20773837 -0.018417632 -0.12584451 0.013838896 -0.0015735409 -0.04727336
0.10613723 -0.08046078 -0.11316342 0.005320268 0.07810044 -0.06815221 -0.052038755 -0.07379525
-0.028434947 0.0050315713 -0.08952384 -0.083631165 -0.005698416 -0.016545877 -0.082585625 -0.13785695
-0.027390273 0.0145622585 -0.10359382 -0.0654581 -0.051228013 0.08244859 0.051931955 0.017218951
-0.08879062 -0.13505152 -0.10160123 -0.03189786 -0.10449026 -0.01056992 -0.120723516 -0.014784338
0.1319933 0.114195354 -0.13019711 -0.08483914 0.07491265 0.18878011 -0.0837259 -0.05402383
-0.12153356 0.08022798 -0.102167 -0.19039847 0.059525933 -0.038683426 -0.041587718 -0.08929196
0.014803233 -0.067445606 -0.08021751 -0.12942375 -0.12528928 -0.021924058 -0.05491607 -0.053081073
-0.0017903248 -0.22380239 0.0031923496 -0.14847067 -0.025085812 0.14088519 -0.13058673 -0.084583886
-0.11480845 0.026416525 -0.10958473 0.0070204316 -0.07239658 -0.011365889 -0.1036441 -0.087221704
-0.14185897 0.104666315 -0.102603704 -0.10709233 -0.03491436 -0.07168018 -0.017423654 -0.08966847
0.03233244 0.07115225 -0.013529692 -0.09996277 -0.13762614 -0.097011365 -0.10121164 -0.08949902
-0.052039884 -0.12487677 -0.09568803 -0.0527796 -0.09516307 -0.063869014 -0.0014987178 -0.07499249

fc.weight f4 [64, 128]
00000000: 1291 b5bd c6e7 21bd ed90 afbd 1702 f4bc
00000010: cbc5 253d 2153 b8bd 43a5 f0bd b1af 5dbd
00000020: 4e97 3eba 00f9 29bd bda9 12be 3723 f2bd
00000030: 273c 68bc 7648 e43c 4d86 683d a6ef aabd
00000040: 88b1 963c 3011 8fbe 1cc0 bdbd e610 95bb
00000050: 45cd 82bd 613d 70bd aadb 7bbd 6fdc 0e3c
00000060: 79d0 1abc 8307 60be bdc1 083d c658 57bd
00000070: 7a4a 5dbd 18e3 5fba ede9 183d c066 733d
00000080: 28f7 6bbd a8aa 87ba 50e3 793d 27ac 26be
00000090: 6115 74be 37c9 6cbd 282b abbd 8682 3c3c
000000a0: ec2b 5b3b 5b29 adbe 2298 1bbd f42b 70bb
000000b0: 56d3 8a3d e499 2bbe 46d1 413d 062c 833e
000000c0: 5fc3 38bc 23d4 c5be 018f a53c a48d 3c3d
000000d0: 9a99 ae3d a714 163d 1a8a e13c 9312 673d
000000e0: 6013 eebb e85c d3bd 601d aebd 842f 07bc
000000f0: 2ab5 01be c582 a7bd 0bcf 9fbc c481 253d
00000100: b806 0a3e dca6 f4bd 73fc c43c 3ff5 91be
00000110: 80a0 0abe d9ec efbc 26b9 85bd 954d b13d
00000120: 2088 76be ac4c bb3d 3c1d 8cbe 93c7 38be
00000130: f298 3fbe cb85 433d f8af 683b 1acb 09bd
00000140: 0996 4d3c 59ab 1dbd 8125 1cbd 1e16 71bd
00000150: 2a91 debd 6ec5 04bd b9c7 093d 1286 2f3d
00000160: f633 8f3b 4122 b5be 85c3 603d aace 63be
00000170: 77c4 85bc 2c30 98be cb54 c13c 0c75 703c
00000180: 8837 68bd 284f d83d 10f7 18be aaf6 473e
00000190: 8007 543d df52 b83d ff2a b7bc 0f5a 23bd
000001a0: 530c aebb ec7b ad3c 01d9 79bd bb0e 20bd
000001b0: 8184 43bd 9cc9 5b3d f40e 27bd 0b76 cfbc
000001c0: 0e6e 3fbe 425f 7ebe 31e5 fdbd 8eb2 a7be
000001d0: 5a6c 07be 0acb 893c d399 dcbc 74eb 54be
000001e0: 9cac f53b a588 1dbe 77e1 1bbc 6c08 323d
000001f0: 326d e5be be27 cd3d f571 cd3c 719f 133c
00000200: 0d57 2abc f375 283d 9def 9b3a 63ba aabb
00000210: bb3f cb3c 54a7 34bd ce5f 363e d804 8bbd
00000220: 90fd 8d3c b022 d0bc 0fba 94be 01f8 48bb
00000230: f0d8 cb3c c011 3a3d bc0c 0dbc feac 04be
00000240: dea2 04be da42 003e a087 89bd db86 7ebd
00000250: 1e30 df3c c81a 553d 6f95 a5bd 18d4 d93d
00000260: 0811 80be 4353 1bbd 4d7b e03d cd63 ea3d
00000270: 37e7 b53d 122f e43d a7fb 1dbe 18f1 4d3b
00000280: 41d5 acbe f7fd 2d3c 33be cd3d 47b2 f33d
00000290: 4018 b93d 7dcf be3d 2dc5 c83d 223f 10bd
000002a0: 2ca1 fb3d b23e 693e b475 75bd ff0c 5d3e
000002b0: 5053 6abd ca7a 9dbd 6793 2f3d f55e 7d3e
000002c0: f0da 3d3d 4291 e2bd 06d6 d43d 5864 afbc
000002d0: c0bf debc cebc 583d b2ec 963a 009f 50be
000002e0: 2666 e4bb 4576 bfbe 62e9 bbbd 3cf5 203c
000002f0: e7f4 95bc f0fb eb3d 710a c0bc 714b 873d
00000300: 7455 a13c 19e7 92be a33d 15bd b7d8 c7bd
00000310: ea10 503e ef30 20be 8f9a 853d c222 be3d
00000320: 7f98 0c3d 33f1 e0bc d0a3 55bd d275 8dbd
00000330: 1d87 dcbd 27f0 b43c 6fc7 653b c937 b93c
00000340: 8994 05bc b10d 93bd f8b9 a3bd 5de3 33bd
00000350: 331e dbba a51d a03d fc4c 63bb bb91 093d
00000360: 91df a23d 7257 0cbe 67b4 ca3d 177e 5ebd
00000370: 1075 113e 9cf4 683e 798a 1c3c 8523 bcbd
00000380: 65c4 c3bd 8261 23be 355b 71bd 23cc 203e
00000390: 4924 383d 4c54 08bb a7d5 3f3c b509 833d
000003a0: 45b5 803d 560d 883e 6dfb cdbd 187c 8fbd
000003b0: 601c 7f3d c369 96bc 0aa6 9d3d 5148 02bd
000003c0: b9f2 193e 5616 4d3e edb8 be3d a46a a3bd
000003d0: 2621 7f3e 4fea f13c 38a6 a13c b09e 33be
000003e0: 1484 f0ba 15fa 033d c336 583c 4143 b63d
000003f0: c639 8abc 9446 bbbd 5043 7bbd 6ae9 16be
-0.088655606 -0.039527677 -0.08572564 -0.029786153 0.040471833 -0.090002306 -0.11750271 -0.05412263
-0.0007270471 -0.04149723 -0.14322563 -0.11823123 -0.014174498 0.027866583 0.056768704 -0.083464906
0.0183952 -0.279428 -0.092651576 -0.0045491336 -0.06386808 -0.058652285 -0.061488785 0.008719548
-0.009449118 -0.21877865 0.03338789 -0.052574895 -0.054026105 -0.00085406145 0.037332464 0.059424162
-0.057608753 -0.0010350542 0.061007798 -0.16276608 -0.2383628 -0.05780908 -0.08357841 0.011505729
0.0033442928 -0.33820614 -0.037986882 -0.0036647292 0.067785904 -0.16757923 0.04731872 0.25619525
-0.011277049 -0.3863841 0.020209791 0.046033517 0.08525391 0.03664079 0.027531672 0.056414198
-0.0072654933 -0.10320455 -0.085016966 -0.008251075 -0.12666765 -0.08179239 -0.019507905 0.040406957
0.13479125 -0.119458884 0.024046158 -0.2850742 -0.13537788 -0.029287742 -0.06529455 0.08657376
-0.24075365 0.091454834 -0.27366054 -0.18044882 -0.18710688 0.047735017 0.0035505276 -0.03364096
0.012547978 -0.038493488 -0.038121704 -0.058858983 -0.108675316 -0.032414846 0.033637736 0.04285247
0.004370208 -0.35377696 0.054873962 -0.22246805 -0.016329033 -0.29724252 0.023600003 0.014676344
-0.056693584 0.10561973 -0.14937997 0.19527689 0.051764965 0.090001814 -0.02235937 -0.03988081
-0.0053115278 0.021177255 -0.060997967 -0.039076548 -0.047733787 0.053659067 -0.040785745 -0.025324842
-0.18694326 -0.24841025 -0.123972304 -0.32753414 -0.13224927 0.01682045 -0.026928818 -0.20792943
0.0074973833 -0.15384157 -0.009514204 0.043465063 -0.44809872 0.10017346 0.025078753 0.009010182
-0.010396731 0.04112811 0.0011896972 -0.0052102073 0.024810662 -0.04410489 0.17809984 -0.06788033
0.017332822 -0.025407165 -0.290482 -0.00306654 0.024883717 0.045427084 -0.008608993 -0.12956616
-0.12952754 0.12525502 -0.067153215 -0.062140327 0.027244624 0.052027494 -0.08085143 0.10636157
-0.25012994 -0.0379212 0.10961018 0.11444817 0.08881991 0.111417904 -0.15428029 0.003142422
-0.3375645 0.010619632 0.10046043 0.11899238 0.090378284 0.09316919 0.09803233 -0.03521646
0.122866005 0.22777823 -0.059926704 0.21586989 -0.05720836 -0.07689436 0.042865183 0.24743254
0.046351373 -0.11062862 0.10392384 -0.021410152 -0.027191043 0.052914433 0.0011514632 -0.20373154
-0.006970185 -0.3739492 -0.091753736 0.009824093 -0.018305255 0.11522663 -0.023442479 0.06606186
0.019694068 -0.2869194 -0.036435734 -0.09758132 0.20318952 -0.15643667 0.0652362 0.09283973
0.03432512 -0.027458763 -0.052158177 -0.06907238 -0.10767958 0.02208717 0.0035061499 0.022609608
-0.008153089 -0.07180346 -0.07994455 -0.043918002 -0.0016717374 0.07818154 -0.0034683337 0.033586245
0.07952798 -0.13705233 0.0989769 -0.054319467 0.14204812 0.22749561 0.009554499 -0.09186462
-0.09558944 -0.15955165 -0.058924872 0.15702872 0.04495648 -0.0020802198 0.0117086535 0.06398336
0.062845744 0.26572675 -0.10057721 -0.07006091 0.06228292 -0.018360978 0.07697685 -0.031807248
0.15033998 0.20028052 0.093126155 -0.079793245 0.24914989 0.029530672 0.01973258 -0.17541003
-0.0018349909 0.03222092 0.01319665 0.088995464 -0.016873252 -0.09144321 -0.06134349 -0.14737478

fc.bias f4 [64]
00000000: 1ae3 10be 5ce2 aebd f490 c5bd 5101 99bc
00000010: 5df5 79bc 133a 63bd 6fea 9b3d ac0a 14bc
00000020: 8d6e db3d 6415 6dbd e5c6 d8bd 5723 6e3d
00000030: 16f4 b03d 8483 793d 09b6 ba3d e259 d7bd
00000040: 2041 abbd 5683 22bd c978 0d3e f68a bcbd
00000050: ca72 20bb 3030 d1bd 970b b53d 1a3e dd3d
00000060: c8af 7abd e2e8 abbd bb2b 2b3d 645a 21bd
00000070: 1e29 d9bd 46c3 483d 8111 8dbd 4daf 8dbd
00000080: 5dac dfbd 47cd 98bd ab75 b7bd 4c7b c0bd
00000090: 8b8e 72bd f4a2 cd3c fa36 983c 61fb 97bd
000000a0: 69cb acbd 176f e23d 303f 26bc c218 063e
000000b0: 7aaf 093c f7da 23bd 7763 d8bc b275 08be
000000c0: 3f10 fd3b 84d5 00bd bd22 903c 76c1 0abd
000000d0: 7664 53bd 9b07 753b 6029 603d 2f95 9ebc
000000e0: 492a 61bd 8250 9b3d 867e 66bd 9344 0e3d
000000f0: b2ca 523d 5902 873d 77e7 c0bd 4035 07be
-0.14149132 -0.085392684 -0.09646788 -0.018677386 -0.015256253 -0.055475306 0.07613074 -0.0090357475
0.10714445 -0.057881728 -0.10584811 0.05813917 0.08640306 0.06091644 0.09116752 -0.10515191
-0.08362031 -0.039676033 0.13815607 -0.09206192 -0.0024482482 -0.10214269 0.08840101 0.108028606
-0.061202794 -0.08394028 0.04178975 -0.039392844 -0.106035456 0.049014352 -0.06888104 -0.069182016
-0.109215476 -0.074610285 -0.0895799 -0.09398517 -0.05921797 0.025102116 0.018580902 -0.074209936
-0.08437235 0.11056345 -0.010146901 0.13095382 0.008403653 -0.040003743 -0.026414616 -0.13326147
0.007722884 -0.031453624 0.01759469 -0.033875905 -0.05160948 0.0037388566 0.05472696 -0.019358246
-0.054971967 0.07583715 -0.056273006 0.034733366 0.051462837 0.06592245 -0.094191484 -0.13203907
