trained_models/Sprites-v0/seed=1.pt (torch, 267899 bytes, 14 tensors)

convs.0.weight f4 [4, 1, 3, 3]
0	0x3e2073e6	0.15669212
1	0xbe30231f	-0.17200898
2	0xbdabfd7a	-0.08397956
3	0x3e11acbd	0.1422605
4	0xbeab30f9	-0.334358
5	0x3e3c20b2	0.18371847
6	0xbda8763d	-0.08225677
7	0x3e22160b	0.15828721
8	0x3d0ef0fa	0.034897782
9	0x3ca3c951	0.019993456
10	0x3e2ec5b6	0.17067608
11	0x3da0e9a1	0.07857061
12	0x3e3c7ff2	0.18408182
13	0xbd954a31	-0.072895415
14	0x3cec051c	0.02881103
15	0x3d1f7405	0.038929004
16	0x3dfdd07e	0.12393282
17	0x3d83574f	0.06413137
18	0x3e933211	0.28749135
19	0x3dd03bd8	0.10167664
20	0xbe10642f	-0.14100717
21	0xbe5dffcb	-0.21679609
22	0xbd9b6d75	-0.07589237
23	0xbe294e57	-0.1653379
24	0xbdf3dc67	-0.11907273
25	0x3c03f558	0.0080541
26	0x3e4ae4dc	0.19813865
27	0x3eae7e9d	0.34080973
28	0xbe2bf474	-0.1679247
29	0x3eb57765	0.35442653
30	0x3e7993d3	0.24372797
31	0x3eee68c4	0.46564305
32	0x3eb719c7	0.35761854
33	0xbe2bb52a	-0.16768327
34	0xbe226eff	-0.15862654
35	0xbcb7e4ad	-0.022447908

convs.0.bias f4 [4]
0	0x3e989533	0.2980133
1	0xbb672b9b	-0.0035273794
2	0x3e0f2387	0.13978396
3	0xbc3189ab	-0.010836045

convs.1.weight f4 [8, 4, 3, 3]
0	0x3e30b199	0.17255248
1	0xbd803def	-0.06261813
2	0x3e07cb00	0.13261032
3	0x3c2dd395	0.010609527
4	0xbda4c9a3	-0.08046272
5	0x3dbfd026	0.09365873
6	0xbda3a6b7	-0.07990783
7	0x3d6a2916	0.05716809
8	0xbd26b7b2	-0.04070253
9	0xbd60b9e4	-0.05486478
10	0xbe70a021	-0.23498584
11	0xbdf7d285	-0.121007
12	0x3dc21bf5	0.09477989
13	0xbd42794d	-0.047478963
14	0x3e2509bb	0.16116993
15	0x3e672d16	0.22575793
16	0x3d86cdbc	0.065822095
17	0xbd6c4bea	-0.057689585
18	0x3de4a4ad	0.11164222
19	0x3d75b009	0.059982333
20	0xbdcaad32	-0.09896316
21	0x3def190f	0.116747014
22	0x3de0c6aa	0.10975392
23	0x3e200cfd	0.15629955
24	0xbdb04368	-0.08606607
25	0xbca34e3e	-0.01993477
26	0x3b55af9a	0.0032605887
27	0xbcca391a	-0.024685431
28	0xbe437499	-0.19087447
29	0xbe1e8ab7	-0.15482603
30	0x3db8639a	0.090033725
31	0xbd5220d6	-0.051300846
32	0x3d9aeffb	0.07565304
33	0x3db9545f	0.09049296
34	0x3dfc7884	0.12327674
35	0x3da9c14e	0.08288823
36	0x3d9b802d	0.07592807
37	0x3dc77b8a	0.0974036
38	0xbe0ec6bf	-0.13943003
39	0x3dc71789	0.09721286
40	0xbddf9e83	-0.109189056
41	0xbde4be51	-0.111691125
42	0x3ca52077	0.020157082
43	0xbc8ed66d	-0.01743623
44	0x3de28a2f	0.11061513
45	0xbc171509	-0.009221324
46	0xbda3a689	-0.079907484
47	0x3e73019d	0.23731084
48	0x3dbcd122	0.092195764
49	0x3e3e8a9b	0.18607561
50	0x3e2a727c	0.16645235
51	0xbc3618bd	-0.0111142965
52	0x3dfaae8e	0.12240325
53	0x3e2dd376	0.16975197
54	0xbdf84e6e	-0.12124334
55	0xbda9af63	-0.082854055
56	0x3d5512ca	0.05201987
57	0x3cdb41b2	0.026764724
58	0xbd9549e1	-0.07289482
59	0xbd42d21e	-0.047563665
60	0x3e264e5c	0.16240829
61	0xbcdc35b0	-0.026881069
62	0x3dd69df4	0.10479346
63	0x3e83a7f5	0.2571408
64	0x3db696a6	0.08915453
65	0x3d7b43a9	0.061343823
66	0x3eab89fc	0.3350371
67	0x3e40bafd	0.1882133
68	0x3e940151	0.28907254
69	0x3e4f772c	0.20260304
70	0x3e698e9a	0.22808304
71	0x3e961d68	0.2931931
72	0x3e21c86d	0.15799113
73	0xbddcb11c	-0.107759684
74	0x3cc55f82	0.024093393
75	0x3e02b761	0.12765266
76	0x3e02b22b	0.12763278
77	0x3de26492	0.110543385
78	0xbdeeebf5	-0.11666099
79	0xbde68e8d	-0.11257658
80	0xbdbf1b40	-0.093313694
81	0x3d25af79	0.040450547
82	0x3e2fa4fc	0.1715278
83	0xbda30765	-0.07960395
84	0x3dd47cd2	0.1037537
85	0xbda870db	-0.082246505
86	0xbe17c97f	-0.14822958
87	0x3a5740e2	0.00082112674
88	0x3deb02e7	0.11475163
89	0x3e37bb67	0.17942582
90	0xbdd1b612	-0.10239805
91	0x3d23fc0a	0.040035285
92	0x3e174ef7	0.14776216
93	0x3de9efa2	0.114226595
94	0x3de65cf4	0.11248198
95	0x3e0146ca	0.1262466
96	0x3de0ece2	0.10982682
97	0x3d4afee7	0.0495595
98	0xbddb3a9d	-0.10704539
99	0xbdabd2f2	-0.08389844
100	0xbcf95f76	-0.030441027
101	0x3cf27db2	0.029600952
102	0xbd12b301	-0.035815243
103	0x3dda41a1	0.10657049
104	0x3dda0f69	0.106474705
105	0x3bc64431	0.0060506095
106	0x3dcc4bd5	0.09975401
107	0x3dd9207e	0.106019005
108	0x3ddef60b	0.10886773
109	0x3df49e72	0.119442835
110	0xbd4ab814	-0.049491957
111	0x3e2e3836	0.1701363
112	0xbc4ac233	-0.012375402
113	0x3abfe915	0.0014641607
114	0xbe19d81f	-0.1502385
115	0xbdcd32fc	-0.1001949
116	0xbdb8eb70	-0.09029281
117	0xbcddaf46	-0.027061116
118	0x3e23b505	0.15987022
119	0x3c060d24	0.008181844
120	0xbdceaec1	-0.100919254
121	0x3dcd43ff	0.10022735
122	0x3dbcef13	0.09225287
123	0x3df9909b	0.121857844
124	0xbdb4a82b	-0.08821138
125	0x3d4853de	0.048908107
126	0xbd551cb1	-0.052029315
127	0xbceebe62	-0.029143516
128	0xbdffe9cc	-0.12495765
129	0xbd8b2b46	-0.06795363
130	0xbd3123c5	-0.043247003
131	0x3da2a32d	0.079412796
132	0x3d1fb722	0.03899301
133	0x3d4bfcc6	0.04980161
134	0x3e32c61b	0.17458384
135	0x3e62fb83	0.22166257
136	0x3e3a89a7	0.18216573
137	0x3d8315c7	0.06400638
138	0xbd822e0b	-0.06356438
139	0x3e456396	0.1927627
140	0x3c829f5c	0.01594513
141	0x3c1758f3	0.009237516
142	0xbe09c386	-0.13453493
143	0xbc023bc9	-0.007948824
144	0xbddcb9c5	-0.1077762
145	0x3e1a1a47	0.15049087
146	0xbe15e3b4	-0.14637643
147	0xbe08608c	-0.1331808
148	0xbc314a95	-0.010821004
149	0xbdc41628	-0.095745385
150	0x3d676dd7	0.056501236
151	0xbd8f21c0	-0.06988859
152	0xbdab89f7	-0.08375924
153	0x3c07976d	0.008275849
154	0x3e20963e	0.15682313
155	0xbd3180ed	-0.043335844
156	0x3d9d2eb3	0.07674923
157	0x3e312e01	0.17302705
158	0x3e837377	0.2567403
159	0xbde55c50	-0.11199248
160	0x3e004782	0.12527278
161	0xbbd5fdc6	-0.0065304963
162	0x3e11b46a	0.14228979
163	0xbd88bf52	-0.066771165
164	0x3dc839a7	0.09776621
165	0x3b3e0fb8	0.0029001068
166	0xbc91b2c7	-0.017785443
167	0xbc359f48	-0.011085339
168	0x3cd79118	0.026314303
169	0x3d933948	0.0718866
170	0x3cae584a	0.021282334
171	0x3d449b62	0.047999747
172	0xbd9702e9	-0.07373602
173	0x3e35a3ed	0.17738314
174	0x3e213507	0.15742885
175	0x3e47222e	0.19446632
176	0x3e40104a	0.18756214
177	0xbde2e56a	-0.110789135
178	0x3d01e681	0.031713966
179	0x3e617ba6	0.22019824
180	0xbd9c2d46	-0.07625823
181	0x3e3d80ae	0.18506119
182	0xbde0560b	-0.109539114
183	0xbd902807	-0.070388846
184	0x3dc67bc7	0.096915774
185	0xbdc49183	-0.09598067
186	0x3b9d814f	0.0048066746
187	0x3e1c6ba7	0.15275441
188	0x3e2ea4e5	0.1705509
189	0x3df73032	0.120697394
190	0xbdb24a7b	-0.08705612
191	0xbdbab7d1	-0.091170914
192	0x3e6922db	0.22767203
193	0xbcaa6786	-0.020801317
194	0xbdbb1d01	-0.091363914
195	0x3e1d3041	0.15350439
196	0xbd73d369	-0.05952779
197	0x3e06aecd	0.13152619
198	0x3e23ef12	0.16009167
199	0xbdccbc16	-0.09996812
200	0xbde3e726	-0.111280724
201	0x3d4435e0	0.04790294
202	0x3d9bcd79	0.0760755
203	0x3cfcee33	0.030875301
204	0xbd22e0dd	-0.039765228
205	0x3da3909b	0.07986566
206	0xbdc06692	-0.09394564
207	0xbe771ab9	-0.24131288
208	0xbe50c9fa	-0.20389548
209	0x3e406ff6	0.1879271
210	0x3e2592e4	0.16169316
211	0xbd9599bb	-0.073047124
212	0xbc6bf567	-0.01440177
213	0x3e11bf94	0.14233238
214	0x3d2bba32	0.041925617
215	0xbde33670	-0.110943675
216	0x3dd71cb4	0.105035216
217	0x3de3451a	0.110971645
218	0xba7d074a	-0.000965227
219	0xbc3a13b3	-0.011357236
220	0x3e24440d	0.16041584
221	0x3e1e3c04	0.15452582
222	0xbdae9957	-0.08525341
223	0x3e3017b0	0.17196536
224	0x3d4ddbdc	0.050258502
225	0xbe12ff9c	-0.1435532
226	0x3da3cb85	0.07997803
227	0xbe0c0562	-0.13673928
228	0x3e06ee4c	0.1317684
229	0xbdef8cf7	-0.11696809
230	0x3d05da2e	0.032678775
231	0x3c46258f	0.012093916
232	0x3ca52b2b	0.020162186
233	0x3df88220	0.121341944
234	0xbd6e1c77	-0.058132615
235	0xbd74df81	-0.059783462
236	0xbe08aaef	-0.13346456
237	0x3b96c5dd	0.004601224
238	0xbd8a88d6	-0.06764381
239	0x3c8ef025	0.017448494
240	0xbcb9d067	-0.022682382
241	0x3d87b1cc	0.06625709
242	0x3e1ec98d	0.15506573
243	0xbd6ee3f6	-0.05832287
244	0xbe1117e9	-0.14169277
245	0xbe297891	-0.16549899
246	0xbe677498	-0.2260307
247	0x3d943d8e	0.07238303
248	0xbdbe214f	-0.09283697
249	0xbd85df83	-0.06536772
250	0xbd3f608f	-0.046722945
251	0xbe1609d8	-0.14652193
252	0x3e030449	0.12794603
253	0x3e0006f7	0.12502657
254	0x3d269ec8	0.04067877
255	0xbd84881a	-0.06471272

convs.1.bias f4 [8]
0	0xbde5d625	-0.112224855
1	0xbca9de22	-0.020735804
2	0x3dbec2c9	0.09314496
3	0x3d8f6ab2	0.070027724
4	0x3e0c417d	0.13696857
5	0xbdb1cd8e	-0.086817846
6	0x3c3a2dc2	0.011363449
7	0xbcb390d9	-0.021919655

convs.2.weight f4 [16, 8, 3, 3]
0	0xbd906f83	-0.07052519
1	0xbd8f9fda	-0.07012911
2	0x3cdf20fa	0.027237404
3	0x3bd33352	0.006445327
4	0xbd7e0bb2	-0.062022872
5	0xbdad7058	-0.084686935
6	0xbdd86ada	-0.10567255
7	0x3de1ec0a	0.11031349
8	0xbcb6bf07	-0.022307886
9	0xbd11944c	-0.035541818
10	0xbe16840e	-0.14698812
11	0xbd993c1a	-0.074821666
12	0xbe13394b	-0.14377324
13	0xbdc781e0	-0.097415686
14	0x3e1541cc	0.14575881
15	0xbd320e23	-0.043470513
16	0xbddb0b4d	-0.10695515
17	0xbdecda91	-0.11565126
18	0x3da8aadf	0.08235716
19	0x3db79f42	0.08965923
20	0x3df180ae	0.11792122
21	0x3d24738f	0.040149268
22	0x3d785003	0.06062318
23	0xbbe3abe4	-0.006947981
24	0xbd82560d	-0.06364069
25	0xbde60c3a	-0.11232801
26	0x3d95e781	0.073195465
27	0xbc39446e	-0.011307819
28	0x3d55e941	0.0522244
29	0x3bb4e725	0.0055207186
30	0xbdd87fa4	-0.105712205
31	0xbd64a7c6	-0.055824064
32	0x3d0fa0fa	0.03506563
33	0xbca9027e	-0.020631071
34	0xbde51e2d	-0.11187396
35	0x3d2919f2	0.04128451
36	0x3c240356	0.010010561
37	0xbd231626	-0.039816044
38	0x3d4ea289	0.050447974
39	0x3ce4f0cb	0.02794685
40	0xbd37cf34	-0.04487534
41	0x3de30b91	0.110861905
42	0x3d7e8157	0.062135067
43	0x3c56e9ac	0.013117235
44	0xbcc338b7	-0.023830755
45	0xbdc836e2	-0.09776093
46	0x3d0697dc	0.032859668
47	0x3cb22e99	0.021750735
48	0xbd9ad199	-0.07559509
49	0x3db055ae	0.08610092
50	0x3e035bc3	0.12827973
51	0x3c4805e9	0.01220844
52	0xbd6f7f06	-0.05847075
53	0xbdac896e	-0.0842465
54	0x3cce1693	0.025157249
55	0x3dbf5872	0.093430415
56	0x3c975ea9	0.018477755
57	0xbd528046	-0.051391862
58	0x3defd2eb	0.11710151
59	0x3b3b0267	0.0028535367
60	0x3dc772ad	0.097386695
61	0x3cec4fbb	0.028846612
62	0x3dd8c0e8	0.10583669
63	0x3d8ef29e	0.06979869
64	0xbe30dcf5	-0.17271788
65	0x3d5f73ad	0.054553676
66	0xbc98346f	-0.01857969
67	0xbe13aa34	-0.14420396
68	0x3cd89a27	0.026440693
69	0xbe32fe73	-0.17479877
70	0xbdfa887b	-0.12233063
71	0xbdfaf1e1	-0.12253166
72	0xbda1a854	-0.07893434
73	0xbe33da82	-0.17563823
74	0xbe2a29b9	-0.16617478
75	0x3d8c3cdd	0.06847546
76	0x3d944f32	0.07241668
77	0xbd5c9bf4	-0.053859666
78	0x3e792840	0.2433176
79	0x3de975be	0.11399411
80	0xbd87d6c3	-0.066327594
81	0xbd222571	-0.03958649
82	0xbe32f716	-0.17477068
83	0xbd8bad81	-0.068202026
84	0xbe4877c5	-0.19576938
85	0x3a5daa4f	0.0008455859
86	0xbde265eb	-0.110545956
87	0x3e360b15	0.17777665
88	0x3d5c70c7	0.05381849
89	0xbd108e90	-0.03529221
90	0xbd4be0ae	-0.049774818
91	0xbdbd3c2b	-0.09239992
92	0x3cb28833	0.02179346
93	0xbca023df	-0.019548355
94	0x3bb6a0cb	0.0055733672
95	0xbd8f9fe1	-0.07012916
96	0x3d38e3cd	0.045139123
97	0x3d616189	0.055024657
98	0x3c8d7ae1	0.017270507
99	0xbd477fd3	-0.048705887
100	0x3dcc66d9	0.09980554
101	0x3ce79699	0.028270053
102	0x3c258cd1	0.010104374
103	0x3d0bada8	0.03410116
104	0xbdb00a43	-0.08595707
105	0x3dbb1cef	0.09136378
106	0xbdf8a5ae	-0.12140976
107	0x3d8e1b3b	0.069387875
108	0x3d2f484b	0.042793553
109	0x3db693b6	0.089148924
110	0xbd5b31a8	-0.053514153
111	0xbd1b5e38	-0.03793165
112	0xbda21c39	-0.07915539
113	0xbe298d0a	-0.16557708
114	0x3d701215	0.058610994
115	0x3d992d6c	0.07479367
116	0xbda21242	-0.07913639
117	0xbe0f751a	-0.14009514
118	0x3ca23c37	0.019804103
119	0x3d0e452d	0.03473394
120	0xbac5d0f4	-0.001509218
121	0xbdfabc3b	-0.12242933
122	0x3dd4e2c4	0.103948146
123	0x3e007b44	0.12547022
124	0x3e0fc681	0.14040567
125	0xbba606ca	-0.0050667273
126	0x3dcd0253	0.10010209
127	0x3d365a7c	0.044519886
128	0xbc0a52c2	-0.008442583
129	0x3d39aeaf	0.045332607
130	0xbdc1da6a	-0.09465487
131	0xbcefb5f6	-0.02926157
132	0xbdc505ab	-0.09620222
133	0xbdba1953	-0.090868615
134	0xbd35ee4c	-0.04441671
135	0xbe3b36a3	-0.18282561
136	0x3d73f09d	0.05955564
137	0x3d7a8f7e	0.061172
138	0xbd202bc5	-0.039104242
139	0xbd07332f	-0.033007797
140	0xbe2d0a91	-0.16898562
141	0x3dbd657d	0.09247873
142	0x3de0b8ee	0.109727725
143	0xbe436e0d	-0.1908495
144	0x3e09ddc9	0.1346351
145	0x3a6cce41	0.000903342
146	0x3e1a615a	0.15076199
147	0x3d7f5e3e	0.062345736
148	0x3de9c214	0.114139706
149	0xbd34a56d	-0.044103075
150	0x3ceabccf	0.028654484
151	0x3e43d5e7	0.19124566
152	0x3de4970a	0.11161621
153	0x3d5afd39	0.05346415
154	0x3dce8315	0.10083596
155	0xbcc32902	-0.023823265
156	0x3de3be2e	0.11120258
157	0xbcf1a1d1	-0.029496105
158	0x3d4b26d4	0.049597576
159	0x3dfdd3f8	0.123939455
160	0x3e22d2ff	0.15900801
161	0xbd234270	-0.03985828
162	0xbd67450e	-0.05646234
163	0x3d8d9524	0.06913212
164	0xbd987cb5	-0.07445661
165	0xbd960e0e	-0.073268995
166	0xbda7aedd	-0.081876494
167	0xbd04f118	-0.032456487
168	0x3b9d5602	0.0048015127
169	0xbd345c17	-0.044033136
170	0xbccf7266	-0.025323104
171	0xbdce5e83	-0.100766204
172	0x3dbc9402	0.09207918
173	0xbbddf627	-0.0067737284
174	0xbd69b534	-0.057057574
175	0x3d801f60	0.06255984
176	0xbd7a0b85	-0.061046142
177	0x3dd783eb	0.10523208
178	0x3dbd60bb	0.092469655
179	0xbdc3c390	-0.09558785
180	0xbda827a6	-0.08210687
181	0xbd397f03	-0.045287143
182	0xbd5e979b	-0.0543438
183	0x3d1cfc11	0.038326327
184	0xbdb700af	-0.08935677
185	0xbd68836d	-0.056765962
186	0x3da5e0be	0.08099507
187	0xbc0731a2	-0.0082515795
188	0xbcf2cbbe	-0.029638167
189	0xbc844e88	-0.016150728
190	0x3d4d9799	0.050193403
191	0x3df3fb8b	0.119132124
192	0xbc704fbd	-0.014667449
193	0xbda9948c	-0.08280286
194	0x3cf68a3d	0.030095214
195	0x3da3c403	0.07996371
196	0x3dc1dbd0	0.09465754
197	0x3d80c3aa	0.0628732
198	0xbb122abd	-0.0022303306
199	0xbd963170	-0.07333648
200	0x3dbe0d12	0.09279837
201	0x3c8ac940	0.016941667
202	0xbd5c196c	-0.05373518
203	0x3dfdb334	0.12387696
204	0x3da7df80	0.08196926
205	0xbd8f9ddc	-0.07012531
206	0xbd0f7fd3	-0.035034012
207	0xbd1f90a6	-0.038956307
208	0xbc7502c8	-0.014954276
209	0x3da78336	0.081793234
210	0xbd3f16f5	-0.046652753
211	0x3e334aae	0.17508957
212	0xbc85d1bb	-0.016335359
213	0x3e0cf2a4	0.13764435
214	0x3d9e8116	0.07739465
215	0xbd0bb4ce	-0.034107976
216	0x3da729d9	0.08162279
217	0xbdb10d39	-0.086451
218	0xbd7113c4	-0.05885674
219	0x3c6ea969	0.014566758
220	0x3dc2b944	0.09507993
221	0xbd2cb623	-0.042165887
222	0xbd9a2c32	-0.07527961
223	0xbd95082b	-0.072769485
224	0xbd479bc5	-0.048732538
225	0xbdf2947d	-0.11844728
226	0xbdd8b67e	-0.105816826
227	0xbe2f5c04	-0.17124945
228	0xbd0a7b16	-0.03380879
229	0xbd55b625	-0.05217566
230	0xbe1626f0	-0.14663291
231	0xbe2c959d	-0.16853948
232	0xbd359304	-0.04432966
233	0xbd1f8b48	-0.03895119
234	0x3dcaf0ce	0.09909211
235	0xbb24575b	-0.0025076482
236	0xbda5b5ad	-0.080912925
237	0xbd945476	-0.07242672
238	0xbccbc8ff	-0.024876116
239	0xbca9675e	-0.020679172
240	0x3ccbb345	0.024865756
241	0xbca41640	-0.02003014
242	0x3d3aeb51	0.04563457
243	0xbcdab76f	-0.026698796
244	0x3dca61de	0.09881948
245	0x3d1bd4cf	0.038044747
246	0xbcc1c72d	-0.023654545
247	0x3dea58eb	0.11442741
248	0x3d16d30a	0.036822356
249	0xbd912588	-0.07087237
250	0xbd711dba	-0.05886624
251	0x3d9a1985	0.07524399
252	0x3d8bca59	0.06825704
253	0x3dd65015	0.10464493
254	0x3b17ab65	0.002314293
255	0x3dbde66b	0.09272464

convs.2.bias f4 [16]
0	0xbd4160ea	-0.047211565
1	0x3d3d13e1	0.046161536
2	0x3d5698c2	0.052391775
3	0x3d96dc77	0.07366269
4	0xbc820c21	-0.015874924
5	0x3d96b8d8	0.07359475
6	0x3ce17b09	0.027524488
7	0xbc9456fe	-0.018107887
8	0x3c02d5e3	0.007985565
9	0xbdbc24d3	-0.09186711
10	0x3c1ebfc0	0.009689271
11	0xbcf291fc	-0.029610626
12	0xbcc0c6bf	-0.02353227
13	0xbd1d25c6	-0.0383661
14	0xbcf17268	-0.029473498
15	0xbd8e15ba	-0.06937738

convs.3.weight f4 [32, 16, 3, 3]
0	0x3ccbeead	0.024894083
1	0x3c84fded	0.016234362
2	0xbbda2bf1	-0.0066580703
3	0x3dbd6f0e	0.092496976
4	0x3d9d7d32	0.07689895
5	0x3d1cd22d	0.038286377
6	0xbc4020c3	-0.011726561
7	0x3cd23aba	0.025662769
8	0xbd2b7b11	-0.041865412
9	0x3d54650c	0.05185418
10	0x3d8b6415	0.068061985
11	0x3b91b03b	0.004446057
12	0x3d63cebc	0.05561708
13	0x3e1a7f8b	0.15087716
14	0xbd0a7368	-0.033801466
15	0xbb0519ce	-0.002030957
16	0x3dd06d3b	0.10177084
17	0x3dd7ef55	0.10543696
18	0xbda7f159	-0.0820033
19	0xbcb3e5f8	-0.021960244
20	0xbd42d826	-0.047569416
21	0x3d12f448	0.035877496
22	0x3c3dd935	0.011587431
23	0x3d8982b8	0.06714386
24	0x3db39fcd	0.08770714
25	0x3c25176a	0.010076383
26	0x3d677c46	0.056515
27	0x3c5f3487	0.013623363
28	0xbc810bf7	-0.015752776
29	0xbce0872d	-0.027408207
30	0x3cad9359	0.021188425
31	0x3d2b4c20	0.041820645
32	0x3b05398c	0.002032849
33	0x3d00e34c	0.031466767
34	0x3d89d4fe	0.06730078
35	0x3d45024f	0.048097905
36	0x3d2b1206	0.041765235
37	0x3cfd56ed	0.030925239
38	0xbd65b59d	-0.056081403
39	0xbd38d05b	-0.04512058
40	0xbd641326	-0.055682324
41	0x3d7f5c29	0.06234375
42	0xbd87bc41	-0.066277035
43	0xbd615bf0	-0.05501932
44	0x3d80c186	0.06286912
45	0x3d8c3dc3	0.068477176
46	0xbd73092c	-0.05933492
47	0x3d86f093	0.06588855
48	0xba8d145a	-0.0010763512
49	0x3d0de373	0.03464074
50	0xbd16553d	-0.036702383
51	0x3b7c4fe8	0.0038499776
52	0x3d0894ac	0.03334491
53	0x3d9d9ccf	0.076959245
54	0x3d834b7c	0.06410882
55	0xbcf5802a	-0.02996834
56	0xbd3a6608	-0.04550746
57	0xbafaa712	-0.0019123277
58	0x3d19693c	0.037453875
59	0x3d402322	0.046908505
60	0xbd8540c7	-0.06506496
61	0xb951fe48	-0.0002002652
62	0x3c788bc4	0.0151700415
63	0xbd9252cc	-0.071446985
64	0x3dbff108	0.09372145
65	0xbb89b6f3	-0.0042027174
66	0xbda94a4b	-0.082661234
67	0x3c9f998b	0.019482395
68	0xbd7cbcfd	-0.06170367
69	0xbd4bc42c	-0.04974763
70	0x3d9f9e37	0.07793849
71	0x3de457f2	0.11149587
72	0x3ca165fe	0.019701954
73	0xbb842352	-0.004032531
74	0x3dc51148	0.09622437
75	0x3da08e5a	0.078396514
76	0x3d90e676	0.07075207
77	0x3cc28272	0.023743842
78	0x3cab8f33	0.020942306
79	0xbd4adb5d	-0.049525607
80	0x3cdd6f6a	0.027030665
81	0x3d06eb22	0.032939084
82	0xbd01c79d	-0.031684507
83	0xbd87b2c8	-0.06625897
84	0x3e0c964c	0.13729209
85	0x3dd4a69f	0.10383343
86	0x3e2e66f0	0.17031455
87	0x3d7e0e1e	0.062025182
88	0xbb8b0fe0	-0.004243836
89	0x3d47cb99	0.04877815
90	0xbcb1d0fd	-0.021706099
91	0xb95c91a1	-0.00021035086
92	0x3da31d4b	0.079645716
93	0x3c104b43	0.008807006
94	0x3da20f02	0.07913019
95	0xbd6a7516	-0.057240568
96	0x3a0d4049	0.00053883024
97	0x3c270a8a	0.010195384
98	0xbd2967fe	-0.04135894
99	0x3d8677c6	0.06565814
100	0x3d7466d2	0.05966837
101	0xbd1ca015	-0.038238604
102	0x3d99fda4	0.07519081
103	0x3d9e6fdd	0.0773618
104	0xbd52dad8	-0.051478237
105	0xbae29ccb	-0.001728916
106	0x3daff96f	0.085924976
107	0xbd3c9afa	-0.046046235
108	0xbb3ee6fd	-0.002912938
109	0xbd3924a5	-0.045200963
110	0x3d91d853	0.07121339
111	0x3cc1c076	0.023651343
112	0x3d2efaf1	0.042719785
113	0x3d8748bc	0.0660567
114	0xbbbfb56b	-0.005850484
115	0xbd994241	-0.0748334
116	0x3c3a2719	0.011361861
117	0xbd98c128	-0.07458717
118	0xbd579a9d	-0.052637685
119	0x3c9472a2	0.018121067
120	0xbe3ec8c3	-0.18631272
121	0xbe134731	-0.14382626
122	0xbd17630d	-0.036959697
123	0xbcda01a0	-0.026612103
124	0xbb2074e3	-0.0024483732
125	0x3d780bc7	0.060558107
126	0x3d2de596	0.04245528
127	0xbd624e77	-0.05525061
128	0x3c0e4bb2	0.008685039
129	0x3c39eff2	0.011348711
130	0xbd96944a	-0.07352503
131	0x3cbeaa75	0.02327464
132	0x3b565d90	0.0032709576
133	0x3d92ff86	0.071776435
134	0xbd968d38	-0.07351154
135	0x3d7d4d9c	0.061841592
136	0xbdab141c	-0.08353445
137	0x3d4dd69a	0.050253488
138	0x3bbeeefd	0.0058268295
139	0x3d1da0e1	0.038483504
140	0xbbe20e3a	-0.0068986686
141	0xbdc08573	-0.094004534
142	0xbd183805	-0.0371628
143	0x3ac19c08	0.0014771232
144	0x3cfa1023	0.030525273
145	0x3d03cd47	0.03217819
146	0xbd496126	-0.049164914
147	0x3cbbac29	0.02290924
148	0x3d920a02	0.07130815
149	0xbd453500	-0.048146248
150	0x3cc3e8cb	0.023914715
151	0xbc149b85	-0.009070282
152	0x3c397252	0.01131876
153	0xbe2f2829	-0.17105164
154	0x3ae04597	0.0017110583
155	0x3ca13a6a	0.019681174
156	0x3ca0351d	0.019556576
157	0x3cd68bc4	0.026189692
158	0x3e01fe5d	0.12694688
159	0xbe3a7fa3	-0.18212752
160	0x3d1e249e	0.03860914
161	0x3d90380e	0.070419416
162	0xbc8f2f27	-0.017478539
163	0x3ce9cda4	0.02854044
164	0x3cbf9e93	0.023391044
165	0x3d63e3ee	0.055637293
166	0xbc47241f	-0.012154608
167	0x3d62bc05	0.05535509
168	0xbdb5d911	-0.08879293
169	0x3d87e414	0.06635299
170	0x3bc3b949	0.0059730154
171	0xbcc4f4fb	-0.024042597
172	0x3d892fbb	0.06698557
173	0x3d6dc495	0.058048803
174	0xbd4024fe	-0.04691028
175	0xbc23baff	-0.009993314
176	0xbd31f655	-0.04344781
177	0xbc832291	-0.016007693
178	0x3cb89a1c	0.022534423
179	0x3d7d7ae5	0.06188478
180	0xbd9c8a87	-0.076436095
181	0x3d0aa102	0.033844955
182	0xbd4d8d96	-0.050183855
183	0xbd8b5ec3	-0.06805184
184	0x3d836e8d	0.0641757
185	0xbccb623c	-0.024827115
186	0xbd3f6706	-0.04672911
187	0x3cbb44fc	0.022860043
188	0xbc8e0cf4	-0.01734016
189	0xbd861133	-0.06546249
190	0xbce4517f	-0.027870892
191	0xbd01ee6f	-0.03172153
192	0xbcb1fee4	-0.021727987
193	0xbd5f0efa	-0.054457642
194	0xbdbdde48	-0.092709124
195	0x3d09854a	0.03357438
196	0xbd9de505	-0.07709698
197	0xbcaa001b	-0.020752003
198	0x3dd3fd81	0.103510864
199	0xbc108dba	-0.008822853
200	0xbd5db1da	-0.05412469
201	0x3d8bc00d	0.0682374
202	0x3dc07936	0.09398119
203	0xbc3290da	-0.010898793
204	0x3cc22247	0.023697985
205	0x3d2888b1	0.041145984
206	0xbc19c560	-0.009385437
207	0xbe08c5e0	-0.13356733
208	0x3d971d20	0.07378602
209	0x3d5e9da0	0.05434954
210	0xbd2fd612	-0.042928763
211	0xbd61a581	-0.055089477
212	0x3e202c59	0.15641917
213	0xbd9a532b	-0.07535394
214	0x3d6e0678	0.058111638
215	0x3df84923	0.12123325
216	0x3d8df561	0.06931568
217	0x3d564377	0.052310433
218	0x3dd2b0c3	0.10287621
219	0xbd5a04d1	-0.05322725
220	0x3d08f3ff	0.033435818
221	0x3c9e08b7	0.019291265
222	0x3ac2d8cb	0.0014865635
223	0xbcb51514	-0.022104777
224	0x3b96b353	0.004599014
225	0xbd7e2bb6	-0.062053405
226	0xbdb4a8e4	-0.08821276
227	0x3e09b758	0.13448846
228	0x3ca9150d	0.02063992
229	0x3cd5757a	0.026056994
230	0x3d7b20ac	0.061310455
231	0x3c3efad9	0.011656486
232	0x3db97adc	0.09056637
233	0xbd515a2f	-0.051111396
234	0x3d39fbb8	0.045406073
235	0xbd3107fd	-0.04322051
236	0x3c4d2a9e	0.012522368
237	0xbda43288	-0.080174506
238	0xbd5dbf07	-0.054137256
239	0x3d9f55e7	0.077800564
240	0xbd2f28a6	-0.042763375
241	0x3c27f112	0.010250347
242	0x3c383d31	0.011245058
243	0x3df3de3f	0.119076245
244	0x3cfb2f59	0.030662226
245	0x3d2a7583	0.041615974
246	0xbd4f9601	-0.050680164
247	0xbc554be0	-0.013018578
248	0x3d808bdd	0.06276677
249	0x3db7981e	0.08964561
250	0x3d398783	0.04529525
251	0xbda5ac20	-0.08089471
252	0xbd78fd74	-0.060788587
253	0x3c499c14	0.012305278
254	0xbd8b16fb	-0.067914926
255	0x3cb6154e	0.022226956

convs.3.bias f4 [32]
0	0x3dc753c4	0.09732774
1	0x3c8c8c09	0.017156618
2	0x3db4ae47	0.08822303
3	0xbab6e67c	-0.0013954188
4	0xbcba74ba	-0.022760738
5	0x3d2ac015	0.04168709
6	0x3d22ff1d	0.039794076
7	0xbd5a952c	-0.053364918
8	0xbca48293	-0.020081794
9	0x3c87ec51	0.016592177
10	0x3d766ec6	0.060164236
11	0x3d895bcf	0.06706964
12	0xbd03812a	-0.032105602
13	0xbd1b5d9f	-0.03793108
14	0x3dbcf7a9	0.09226925
15	0xbc234154	-0.009964306
16	0x3d73891a	0.059456922
17	0xbd134e01	-0.035963062
18	0x3c14b80b	0.009077082
19	0x3cc3f3d3	0.023919975
20	0x3d9d1471	0.076699145
21	0xbd50d9aa	-0.05098883
22	0xbd53651f	-0.05161011
23	0xbcdb8cc3	-0.026800519
24	0x3d9ca352	0.076483384
25	0xbcc38d4f	-0.023871092
26	0xbd27e4b4	-0.040989593
27	0xbd2ddf2a	-0.042449154
28	0x3db21db3	0.08697071
29	0xbd780bfb	-0.0605583
30	0x3d16df5b	0.036834102
31	0x3daca0b1	0.08429087

convs.4.weight f4 [64, 32, 3, 3]
0	0x3ce053c7	0.027383698
1	0x3d380da0	0.04493487
2	0xbcc87769	-0.024471002
3	0x3cf308aa	0.029667217
4	0xbd7832ce	-0.060595326
5	0x3ca5b06b	0.020225724
6	0x3c8df469	0.017328458
7	0x3cc244d8	0.023714468
8	0x3ce8628d	0.028367305
9	0x3d2cea17	0.042215433
10	0x3ccc0a96	0.024907392
11	0xbd498d68	-0.04920712
12	0x3c4a1904	0.012335066
13	0xbd547eba	-0.05187867
14	0x3c017c82	0.00790322
15	0xbcc3e832	-0.02391443
16	0xbce299d2	-0.027661238
17	0xbc46d761	-0.012136311
18	0xb9c74489	-0.000380073
19	0xbd30742e	-0.043079548
20	0xbd75591c	-0.059899434
21	0x3d26c7c3	0.04071785
22	0x3b9be01b	0.00475694
23	0x3d4a55dd	0.04939829
24	0x3c011b1a	0.007879997
25	0x3cd7c4e9	0.026339011
26	0xbd796745	-0.0608895
27	0xbcb405ff	-0.021975515
28	0x3d63dfe1	0.05563343
29	0xba836200	-0.0010023713
30	0xbd31f674	-0.043447927
31	0xbbcfa1ab	-0.006336411
32	0xbd75e8b5	-0.06003638
33	0xbd7608ff	-0.060067173
34	0xbd56ebbf	-0.05247092
35	0xbc0d96ea	-0.008641938
36	0xbd4ab49f	-0.04948866
37	0x3c87a386	0.016557466
38	0xbd2af0d2	-0.04173357
39	0xbd4e67d8	-0.050392002
40	0xbd2116c3	-0.039328348
41	0xbc09dc82	-0.00841439
42	0x3cf4f5ca	0.029902358
43	0xbc19f0cc	-0.009395789
44	0xbd680ee6	-0.056654833
45	0xbc094a44	-0.008379523
46	0x3d458067	0.048218157
47	0xbd1c4d5a	-0.038159706
48	0xbb0c837d	-0.0021440678
49	0x3bb8b808	0.0056371726
50	0xbd35a3b9	-0.04434559
51	0xbd5714b9	-0.052509997
52	0x3c9458bd	0.01810872
53	0xbd1c64db	-0.03818212
54	0xbb50db77	-0.0031869092
55	0x3d37524c	0.04475622
56	0x3c96a047	0.018386973
57	0x3cc335cd	0.023829365
58	0x3d0af13c	0.033921465
59	0xbd120643	-0.035650503
60	0x3c2bc1de	0.010483233
61	0x3d13524e	0.035967164
62	0xbd4ec9d3	-0.050485443
63	0x3c8bb54e	0.017054226
64	0xbd0a36fe	-0.03374385
65	0xbd4cb66a	-0.04997865
66	0xbd43dc07	-0.047817256
67	0x3c0a0c14	0.008425731
68	0xbd273cc4	-0.040829435
69	0x3d02d331	0.03193969
70	0xbbd99c58	-0.006640952
71	0xbc579d1c	-0.013160016
72	0xbd8ae88b	-0.06782635
73	0x3c6e0130	0.01452665
74	0xbd0a147f	-0.033710953
75	0x3ca5501a	0.020179797
76	0xbcb9d9e1	-0.0226869
77	0xbd803462	-0.06259991
78	0x3cb9d144	0.022682793
79	0x3ccec5ea	0.025240857
80	0xbd8c409d	-0.068482615
81	0xbd0b59ea	-0.034021296
82	0xbd3014d8	-0.04298863
83	0xbd6f89dd	-0.058481086
84	0x3bc848b8	0.0061121844
85	0xbd45eace	-0.04831963
86	0x3c63c5c6	0.013902133
87	0xbd46aafb	-0.048502903
88	0xbd580dd9	-0.05274758
89	0xbc27a1d3	-0.010231453
90	0xbc7457f9	-0.014913552
91	0x3b91bb9b	0.004447413
92	0xbd5f6044	-0.054535165
93	0x3d025d59	0.031827305
94	0xbd8cbc11	-0.06871808
95	0x3cea2053	0.028579867
96	0x3d21b157	0.039475765
97	0xbb8592d2	-0.0040763402
98	0xbb1d2180	-0.0023976266
99	0xbd2ca470	-0.042149007
100	0x3c3efdbe	0.011657177
101	0x3d2ce940	0.042214632
102	0xbd7f8e6d	-0.062391687
103	0x3d1c175c	0.038108215
104	0xbd1a6a20	-0.037698865
105	0x3b6944f5	0.003559408
106	0x3c77786e	0.015104396
107	0xbc2f4cf6	-0.010699501
108	0xbd0f2fa4	-0.034957543
109	0xbd0f3854	-0.034965828
110	0xbc6b0192	-0.014343636
111	0xbd35a752	-0.044349022
112	0xbd37bd15	-0.044858057
113	0xbd8a8884	-0.067643195
114	0x3d3a0344	0.04541327
115	0xbd5c0985	-0.053720016
116	0xbd27ab96	-0.04093512
117	0x3cc5c2de	0.024140771
118	0x3caa36ef	0.020778148
119	0x3d348d7f	0.044080254
120	0x3cc1709a	0.023613263
121	0x3d276276	0.040865384
122	0xbd07057e	-0.032964222
123	0x3ca8825a	0.020569969
124	0x3c0ce474	0.008599389
125	0xbd5ad73b	-0.053427916
126	0x3d326d00	0.04356098
127	0x3c59a52b	0.013284008
128	0x3cbf913f	0.023384688
129	0x3cb80736	0.022464376
130	0x3c0ced56	0.008601507
131	0xbd221494	-0.039570406
132	0x3cdeeb40	0.027211785
133	0xbbe53479	-0.0069947806
134	0xbd1a1b54	-0.03762372
135	0x3bc1dc2b	0.0059161386
136	0xbc5cf8bc	-0.013487037
137	0x3b9613d8	0.0045800023
138	0x3c3f21a2	0.0116657335
139	0x3c94c970	0.01816246
140	0xbcf78ba5	-0.030217955
141	0xbcd290e3	-0.025703853
142	0xbcb19a4d	-0.021680022
143	0x3b9f11d7	0.0048544216
144	0xbbbc9f07	-0.005756262
145	0x3ca7b30b	0.020471117
146	0xbcc0ed22	-0.023550574
147	0xbd2ce667	-0.042211916
148	0xbd165715	-0.03670414
149	0x3cb67a86	0.02227522
150	0x3ca19080	0.019722223
151	0xbd4cce4c	-0.050001428
152	0x3b9319ca	0.0044891583
153	0x3d364a05	0.044504184
154	0x3ca68d85	0.020331154
155	0xbc17c6a7	-0.009263671
156	0xbcbffa37	-0.023434741
157	0x3d201d4e	0.039090447
158	0x3bdbc39f	0.0067066695
159	0xbd0ea5fb	-0.03482626
160	0x393f985c	0.00018271938
161	0xbd3b54b9	-0.045735095
162	0xbd2254cb	-0.039631646
163	0x3d016217	0.031587686
164	0x3c1a283e	0.009409009
165	0xbd489782	-0.048972614
166	0xbcd9b871	-0.026577206
167	0xbcaa5b5e	-0.02079552
168	0xbd28be7c	-0.041197285
169	0xbd362802	-0.04447175
170	0x3cb849d6	0.022496145
171	0x3d0495b3	0.032369327
172	0xbcdb6f4b	-0.026786467
173	0xbd807496	-0.06272237
174	0x3d1a3276	0.03764578
175	0xbd2de07f	-0.042450424
176	0xbc28f95a	-0.010313356
177	0xbd13ba89	-0.036066566
178	0xbcf00aa0	-0.029301941
179	0x3d059cc9	0.032620225
180	0x3d251808	0.04030612
181	0xbd0e5ad0	-0.034754574
182	0x3d1bee70	0.03806919
183	0xbd34fb5b	-0.044185024
184	0xbd6a8be4	-0.057262316
185	0x3c018dfb	0.007907386
186	0xbc3d2935	-0.011545469
187	0x3cabc265	0.020966718
188	0x3d0eb343	0.034838926
189	0xbcb33466	-0.021875571
190	0xbaaf3370	-0.001336677
191	0x3cab89b2	0.020939682
192	0x3b133230	0.0022460334
193	0xbc14b750	-0.009076908
194	0x3c851dda	0.016249586
195	0xbd4adfc7	-0.049529817
196	0xbb900850	-0.004395522
197	0xbd150460	-0.036381125
198	0xbd63d5b6	-0.055623733
199	0x3cf5f9ed	0.0300264
200	0xbd506fe4	-0.050887957
201	0xbcc6c612	-0.02426437
202	0x3d1a4acf	0.037669
203	0xbd12c5a1	-0.035833005
204	0xbc0c3bb0	-0.0085591525
205	0x3d48df4b	0.049041074
206	0x3cd4a7a2	0.02595884
207	0x3cc86126	0.024460386
208	0x3b0ca6e8	0.0021461789
209	0xbc5b6b58	-0.013392292
210	0x3d1eee89	0.038801704
211	0x3d19512a	0.03743092
212	0xbc9856f9	-0.01859616
213	0xbcd82374	-0.026384093
214	0xbd027459	-0.03184924
215	0xbbd2e915	-0.006436477
216	0xbd6144a4	-0.0549971
217	0xbd6e06ec	-0.05811207
218	0xbd82ca17	-0.06386202
219	0x3c79c1e3	0.01524398
220	0xb9661aad	-0.00021944447
221	0x3c8100ec	0.01574751
222	0xbc588c76	-0.013217082
223	0xbd44878d	-0.047980834
224	0xbb87b1c0	-0.0041410625
225	0xbcb3b5c7	-0.021937264
226	0xbcfaf597	-0.030634684
227	0x3c81a2ab	0.015824636
228	0xbd1ba448	-0.037998468
229	0xbc0df761	-0.008664937
230	0xbd4b49c4	-0.049630895
231	0xbc84de79	-0.016219364
232	0xbc476e8d	-0.012172353
233	0xbd55795c	-0.05211769
234	0x3cd8c596	0.026461404
235	0xbc33daf8	-0.010977499
236	0xbd2a6e22	-0.041608937
237	0x3d204529	0.039128456
238	0xbce0b2d8	-0.02742903
239	0x3d5def49	0.05418328
240	0xbc4abf44	-0.012374703
241	0x3d583757	0.05278715
242	0xbd26d9f3	-0.040735196
243	0xbc98535a	-0.018594433
244	0x3d64cc55	0.05585893
245	0xbc0f9ac8	-0.00876493
246	0xbccf9e9c	-0.025344186
247	0x3cb0081e	0.021488246
248	0xbd281882	-0.041038997
249	0x3d138c69	0.036022577
250	0xbca6a372	-0.020341609
251	0x3d4e0f7b	0.050307732
252	0x3d0451b3	0.032304477
253	0x3d2e9f41	0.042632345
254	0xbc88b761	-0.016689004
255	0xbca68467	-0.020326806

convs.4.bias f4 [64]
0	0xbd253c30	-0.040340602
1	0x3d2f95a9	0.042867336
2	0x3cab19bd	0.020886296
3	0xbd98eb73	-0.074667834
4	0xbcda59e7	-0.026654197
5	0xbd1643f6	-0.036685906
6	0xbd676f1b	-0.056502443
7	0x3d8aea0e	0.06782924
8	0xbcc2ffa6	-0.023803543
9	0x3a1e673b	0.0006042604
10	0x3ce6e5d1	0.028185757
11	0xbd8d39fe	-0.06895827
12	0x3d15cb26	0.03657069
13	0x3c132500	0.008980989
14	0x3d2efc8c	0.042721316
15	0xbc62641a	-0.013817811
16	0xbd868c0a	-0.06569679
17	0xbc9b71ad	-0.018975103
18	0x3d9d2d77	0.07674687
19	0xbb97fbd1	-0.004638173
20	0xbc34043a	-0.010987336
21	0x3d414be7	0.047191527
22	0x3d481ac5	0.048853654
23	0xbccec1a5	-0.025238821
24	0xbcfd2c68	-0.030904964
25	0x3cf61384	0.030038603
26	0x3d6985b1	0.057012264
27	0xbdae9cfe	-0.08526038
28	0x3d86d220	0.06583047
29	0xbd03cd5e	-0.032178275
30	0x3d48310e	0.048874907
31	0x3d9a2d7b	0.07528206
32	0x3ccf4a4b	0.02530398
33	0xbd982aee	-0.07430063
34	0x3d4c1979	0.04982898
35	0x3d96ca70	0.07362831
36	0x3d438c0a	0.047740974
37	0xbbaf7840	-0.005354911
38	0x3d679d70	0.05654663
39	0xbcbb6206	-0.02287389
40	0x3d387cd3	0.045040917
41	0xbc1c8507	-0.009553201
42	0xbd768bcf	-0.060191926
43	0x3d1e6f24	0.03868021
44	0xbc8a8602	-0.016909603
45	0xbd829d6c	-0.06377682
46	0x3cb5f013	0.022209203
47	0x3d034191	0.03204495
48	0xbd5054fc	-0.050862297
49	0x3c3a6441	0.011376441
50	0xbcb4243e	-0.021989938
51	0xbd8fdde4	-0.07024744
52	0xbbea2442	-0.0071454355
53	0x3d4c3611	0.04985625
54	0x3d8950f2	0.06704892
55	0xbd9729c7	-0.07381015
56	0xbcae2709	-0.021258848
57	0xbc9dea27	-0.019276692
58	0x3d1ff229	0.0390493
59	0xbb168f57	-0.002297362
60	0x3d2e20b2	0.04251165
61	0xbd1fbe7b	-0.039000016
62	0xbd7d1ba9	-0.061793957
63	0xbbc7fa47	-0.0061028334

convs.5.weight f4 [128, 64, 2, 2]
0	0x3cf313ec	0.029672585
1	0xbd32c9a0	-0.043649316
2	0xbd23e55a	-0.04001365
3	0xbd56b930	-0.052422702
4	0xbd01673f	-0.031592604
5	0xbc1bbbfc	-0.009505268
6	0xbd0a811b	-0.03381453
7	0x3c00e8ff	0.007868051
8	0x3d21439d	0.03937112
9	0xbadab82d	-0.0016686969
10	0xbd95bc58	-0.07311314
11	0xbb9a94c1	-0.00471744
12	0x3d53fa92	0.051752634
13	0x3c2a7f40	0.010406315
14	0x3d6b661a	0.05747042
15	0xbd5bc0e8	-0.053650767
16	0xbd148da9	-0.03626791
17	0xbd256fb6	-0.04038974
18	0xbd9610fd	-0.07327459
19	0xbbf34f10	-0.0074251965
20	0x3c477e30	0.012176082
21	0xbc959720	-0.018260539
22	0x3c9e9a44	0.019360669
23	0x3d024314	0.031802252
24	0xbd205922	-0.039147504
25	0x3d438802	0.04773713
26	0xbd12b3c8	-0.035815984
27	0xbced81bc	-0.028992526
28	0x3be16ef1	0.0068796803
29	0x3cacdc2d	0.021101082
30	0x3d1b8ce5	0.037976164
31	0xbcd1bd25	-0.025602886
32	0xbd22d3c4	-0.039752737
33	0x3d19d1f9	0.03755376
34	0x3cb79c78	0.022413477
35	0xbcf0e945	-0.029408107
36	0xbd25da68	-0.04049149
37	0x3c855b84	0.01627899
38	0xbcbca978	-0.023030028
39	0xbd484ba2	-0.048900254
40	0xbc913a64	-0.017728038
41	0xbbac5e83	-0.00526029
42	0xbc35a218	-0.011086009
43	0x3d1cf9fc	0.03832434
44	0x3d00fdc2	0.031492002
45	0x3c3d5b81	0.011557461
46	0x3975fafb	0.00023458518
47	0xbc7cea49	-0.015436717
48	0x3cb62145	0.022232661
49	0xbd8dc540	-0.06922388
50	0xbd1469a7	-0.03623357
51	0xbc4769eb	-0.012171249
52	0x3d0e0744	0.034674898
53	0xbc8933a8	-0.016748264
54	0x3ccd40fe	0.025055405
55	0x3c0d9a0e	0.0086426865
56	0xbbdd9d26	-0.0067631183
57	0xbd705f6a	-0.058684744
58	0xbd75f311	-0.06004626
59	0x3d0ef7ea	0.034904398
60	0xbd16e1f8	-0.036836594
61	0x3d3ee2b8	0.046602935
62	0x3c323868	0.010877706
63	0x3d2d627a	0.042330243
64	0x3d15e956	0.03659948
65	0xbd3c8904	-0.046029106
66	0xbd00a9f6	-0.031412087
67	0xbc8cb130	-0.017174333
68	0xbc5b9981	-0.013403297
69	0x3c542268	0.012947656
70	0x3c8e3ddc	0.017363481
71	0x3ca8b79b	0.020595362
72	0x3d1064a3	0.035252225
73	0x3caa74dc	0.020807676
74	0xbd84cafd	-0.064840294
75	0xbc7e5778	-0.015523784
76	0x3d38414f	0.044984158
77	0x3d22b490	0.03972298
78	0xbd1e0be6	-0.038585566
79	0x3ced6b32	0.028981779
80	0x3cbb3c64	0.022855945
81	0xbd072d8d	-0.033002425
82	0x3aaec859	0.0013334855
83	0xbc9060f9	-0.017624365
84	0xbd84e7dd	-0.06489537
85	0xbc2b0a87	-0.010439522
86	0xbc35ddc5	-0.011100237
87	0xbd5bd46f	-0.05366939
88	0xbd0b4b85	-0.034007568
89	0xbd80169c	-0.062543124
90	0xbcd91cdb	-0.026503017
91	0xbc894bb3	-0.016759729
92	0xbd8c710d	-0.068575
93	0xbd926110	-0.071474195
94	0x3ce3da1c	0.027813964
95	0xbc1e8feb	-0.009677867
96	0xbcf24c51	-0.029577406
97	0xbc1868a1	-0.009302289
98	0xbba0cce9	-0.0049072397
99	0x3cf0578a	0.029338617
100	0xbd26f087	-0.04075673
101	0xbd00d48a	-0.031452693
102	0xbca86022	-0.020553652
103	0x3c8010f2	0.01563308
104	0xbbaff1eb	-0.005369415
105	0x3cbcde81	0.023055317
106	0x3d512548	0.051060945
107	0xbb68f4d5	-0.0035546322
108	0x3d072ad0	0.032999814
109	0x3b992afd	0.004674314
110	0x3c61d318	0.013783239
111	0xbbc08860	-0.005875632
112	0xbd29c534	-0.041447833
113	0xbc15b364	-0.009137008
114	0x3c2c27fd	0.010507581
115	0xbca22f45	-0.01979793
116	0x3cc8d5a0	0.024515927
117	0x3cf423fc	0.029802315
118	0xbcd58eec	-0.026069127
119	0xbd6e8338	-0.05823061
120	0xbd3a1699	-0.045431707
121	0x3d3613d1	0.044452492
122	0xbccadcad	-0.02476343
123	0xbcfcbbf9	-0.030851351
124	0x3bca169e	0.006167247
125	0x3a2ee463	0.00066716055
126	0xbd31dde0	-0.043424487
127	0xbb01b711	-0.0019792954
128	0xbd838956	-0.06422679
129	0x3d12abf9	0.035808537
130	0x3bd99c1a	0.006640923
131	0x3ca03272	0.019555304
132	0xbcc2d314	-0.02378229
133	0xbd184faa	-0.03718535
134	0xbd06cd7c	-0.03291081
135	0xbcb35004	-0.02188874
136	0xbd6fbab5	-0.058527667
137	0x3d37d7ce	0.04488354
138	0x3ce3dcc7	0.027815236
139	0x3b71437c	0.0036813905
140	0xbcf33839	-0.029689895
141	0xbd0797ce	-0.033103757
142	0xbcae2a51	-0.021260412
143	0xbd78848d	-0.060673285
144	0xbc3bbf78	-0.011459224
145	0x3c0d4175	0.008621563
146	0xbd386352	-0.045016594
147	0xbd88c0d5	-0.06677405
148	0xbda59023	-0.080841325
149	0x3c41b181	0.011822105
150	0xbc5d113f	-0.013492881
151	0xbd651fd2	-0.05593855
152	0xbca3a9f5	-0.019978503
153	0xbd570bb4	-0.052501395
154	0xbd2fb4be	-0.04289698
155	0xbd167714	-0.036734655
156	0xbcb05283	-0.02152372
157	0x3c26b813	0.010175723
158	0xbd800b1b	-0.06252118
159	0xbcf342e1	-0.029694976
160	0x3d2d01eb	0.042238157
161	0x3d1de6bf	0.038550135
162	0x3c7a4ac5	0.0152766155
163	0x3d41c6d7	0.04730877
164	0xbd066de8	-0.03281966
165	0xbd1eec45	-0.038799543
166	0x3d310d4a	0.043225564
167	0xbd38fb1b	-0.045161348
168	0xbd034aaa	-0.032053627
169	0xbd0c1b30	-0.034205616
170	0x3c929520	0.017893374
171	0xbc407128	-0.011745729
172	0xbd065a92	-0.03280122
173	0x3c1ee52a	0.009698192
174	0x3c99be6b	0.018767556
175	0xbc5fadf5	-0.013652314
176	0x3d24dc4f	0.040249165
177	0x3cd9a99b	0.026570132
178	0x3ce06532	0.027392004
179	0x3d6ce0e7	0.05783167
180	0x3d324098	0.043518633
181	0xbd3a9206	-0.045549415
182	0x3c050270	0.008118257
183	0x3ce5c848	0.028049603
184	0xbbde71a5	-0.00678845
185	0x3cee6d22	0.029104773
186	0xbcfc6879	-0.030811535
187	0x3cafacac	0.021444641
188	0xbd81805b	-0.0632331
189	0xbbfe0e15	-0.0077531436
190	0xbc4fadda	-0.012675727
191	0x3d4902f1	0.04907507
192	0x3c1d8f68	0.00961671
193	0xbc3eabb8	-0.011637621
194	0xbbed4cd0	-0.007241823
195	0x3d38f066	0.045151137
196	0xbd95dfe6	-0.07318096
197	0xbd2b8b9c	-0.04188119
198	0xbd90fea1	-0.070798166
199	0xbc39286a	-0.011301139
200	0x3d515d9e	0.05111467
201	0x3bfd216c	0.0077249315
202	0x3d47e277	0.048799958
203	0xbd8e15d2	-0.06937756
204	0x3d77a7d2	0.06046278
205	0x3c6cac68	0.014445402
206	0x3ca12ac4	0.019673713
207	0x3c525efd	0.01284003
208	0xbd83c6a5	-0.06434373
209	0x3c856972	0.016285632
210	0xbd74943a	-0.059711672
211	0xbc4771dd	-0.012173143
212	0xbd496ec0	-0.049177885
213	0x3be91f2c	0.0071143117
214	0xbcf9cfd8	-0.030494615
215	0xbd5cecbc	-0.053936705
216	0xbd3f9900	-0.04677677
217	0x3d0b518d	0.03401332
218	0x3bd885ca	0.006607746
219	0x3d5639dc	0.052301273
220	0x3d2e19b8	0.042504996
221	0xbd1baa16	-0.038004003
222	0xbd5a2cde	-0.053265445
223	0x3c4d9b38	0.012549214
224	0xbd3dfbf3	-0.046382856
225	0x3cae056c	0.02124282
226	0x3bff5214	0.007791767
227	0xbc075639	-0.008260303
228	0xbc8986bb	-0.016787877
229	0x3cfca28c	0.030839227
230	0x3cc40761	0.0239293
231	0x3c8beec9	0.017081635
232	0xbc8efca4	-0.017454453
233	0xbcf8019c	-0.030274205
234	0xbbd6be65	-0.0065534585
235	0x3d128d4a	0.035779275
236	0xbd8c12c3	-0.06839516
237	0xbd2d26a7	-0.04227319
238	0x3d08e50d	0.033421565
239	0xbca08b21	-0.019597592
240	0x3d0c91df	0.0343188
241	0x3d503b75	0.050837953
242	0x3d009610	0.03139311
243	0x3d035d5d	0.03207146
244	0xbc4dfa6d	-0.012571913
245	0xbbd8685f	-0.006604239
246	0xbd092890	-0.03348595
247	0x3cd66688	0.026171938
248	0xbc758438	-0.014985137
249	0x3ca61178	0.020272002
250	0x3c48f0a0	0.012264401
251	0x3d6fb8d4	0.058525875
252	0x3d2ea528	0.042637974
253	0xbc904c5c	-0.017614536
254	0xba021e00	-0.0004963577
255	0xbcfa6c7c	-0.030569308

convs.5.bias f4 [128]
0	0xbc8e36bf	-0.01736009
1	0xbcc4d08c	-0.024025224
2	0xbcf2d493	-0.029642379
3	0x3d1d3571	0.038381044
4	0x3d06b456	0.032886826
5	0x3d5237cf	0.051322754
6	0x3d912258	0.07086629
7	0xbd0145f4	-0.031560853
8	0xbcc8ca97	-0.024510665
9	0xbd7999c9	-0.060937677
10	0x3d5973d3	0.053088974
11	0xbd04ebf9	-0.032451604
12	0xbd55fe76	-0.052244626
13	0xbd8a88eb	-0.06764396
14	0x3d824110	0.06360066
15	0xbc6b1d5e	-0.014350263
16	0x3d18963f	0.03725266
17	0x3c471af3	0.012152421
18	0xbd7f8eac	-0.062391922
19	0xbd994a90	-0.07484925
20	0x3d4441a4	0.047914162
21	0x3cda98e5	0.026684234
22	0x3d40ad4a	0.04704026
23	0x3c6e5ccd	0.014548493
24	0x3d3c1362	0.045916922
25	0xbb362450	-0.002779264
26	0xbd1ef9f2	-0.038812585
27	0x3ceb56c9	0.028727906
28	0xbd9008a6	-0.070328996
29	0x3d0f83ac	0.03503768
30	0x3cf90d09	0.030401723
31	0x3d726f89	0.0591884
32	0xbb922783	-0.0044602766
33	0xbc908913	-0.017643487
34	0xbd518b78	-0.0511584
35	0x3c9fd068	0.019508556
36	0x3d3b85bd	0.04578184
37	0xbd9adb52	-0.07561363
38	0x3d03b89e	0.032158487
39	0xbd131d9d	-0.035916913
40	0x3d3875ca	0.045034207
41	0x3d877ae5	0.06615237
42	0xbc793305	-0.015209918
43	0xbc314ecb	-0.010822008
44	0x3d0f33d6	0.034961544
45	0x3ce541c8	0.027985469
46	0xbd833520	-0.06406617
47	0xbca20fea	-0.019782979
48	0x3c828e6d	0.015937055
49	0x3d1462b5	0.036226947
50	0xbd35f863	-0.044426333
51	0xbc8adc79	-0.016950833
52	0x3d194aff	0.037425037
53	0x3c7635c0	0.015027463
54	0x3d9615ea	0.073283985
55	0x3d7e2b44	0.06205298
56	0xbc803085	-0.015648136
57	0xb9dee81f	-0.00042516083
58	0xbd2c352e	-0.042042904
59	0x3da3046e	0.07959829
60	0xbcc87b43	-0.024472838
61	0x3d40dc72	0.047085233
62	0xbd43d63f	-0.047811743
63	0x3d18af7a	0.037276722
64	0x3d7e632a	0.06210629
65	0x3d2277b4	0.03966494
66	0xbd989742	-0.07450725
67	0x3d0dd6ce	0.03462868
68	0xbcdd7d82	-0.027037386
69	0x3da7eee9	0.08199865
70	0xbd0eb04a	-0.03483609
71	0x3d423792	0.047416277
72	0x3bb20273	0.005432421
73	0xbd6fdf29	-0.05856243
74	0x3d60da64	0.054895774
75	0xbd965067	-0.07339554
76	0x3d46c8b1	0.048531238
77	0x3d1182e5	0.03552522
78	0x3d09bb86	0.033626102
79	0xbd4ecdbd	-0.050489176
80	0x3d47e33b	0.04880069
81	0xbcd2d10c	-0.025734447
82	0xbcabec06	-0.020986568
83	0x3d55b994	0.052178934
84	0x3c14c6ac	0.00908057
85	0x3c95ed01	0.018301489
86	0x3aa5d34e	0.0012651475
87	0x3cf9c3d5	0.030488888
88	0x3da7d61c	0.08195135
89	0x3c044422	0.008072885
90	0x3d9effc0	0.07763624
91	0x3d171414	0.036884382
92	0x3db29cc4	0.08721307
93	0x3d5f5f45	0.054534215
94	0xbd46df23	-0.048552644
95	0xbd16b9b5	-0.036798198
96	0xbd22a54c	-0.03970842
97	0x3cab8ec3	0.020942098
98	0xbc1e6bce	-0.009669257
99	0x3d45aae1	0.048258666
100	0xbd2018df	-0.03908622
101	0xbd046eae	-0.032332115
102	0xbbf59e05	-0.007495644
103	0xbaac5ba3	-0.0013149868
104	0xbd94198e	-0.07231437
105	0xbc25f708	-0.010129698
106	0xbd55fb9c	-0.052241907
107	0xbd4ff1cb	-0.0507677
108	0x3d153d47	0.03643539
109	0xbc1f3f08	-0.009719618
110	0x3d8cc323	0.06873157
111	0xbd4f828d	-0.050661612
112	0x3c8ce013	0.01719669
113	0x3d2cd2f0	0.042193353
114	0xbd6f7ff2	-0.058471628
115	0xb9ea76c2	-0.0004472044
116	0x3cbab781	0.02279258
117	0xbd0c1f3c	-0.034209475
118	0xbda6ab3b	-0.08138128
119	0xbc51a61e	-0.012795953
120	0x3d3133d1	0.043262307
121	0xbd727a2c	-0.059198543
122	0xbd0383be	-0.03210806
123	0x3d154b50	0.036448777
124	0xbd326e0a	-0.043561973
125	0x3d6f7354	0.058459595
126	0x3d4d937c	0.05018948
127	0xbc3f6e19	-0.011683964

fc.weight f4 [64, 128]
0	0x3cbefc5a	0.02331369
1	0xbd1c4c55	-0.038158733
2	0xbd9e1447	-0.07718711
3	0xbd696d91	-0.056989256
4	0x3d32cfa2	0.043655045
5	0x3d14dd67	0.03634396
6	0xbd754ca5	-0.059887547
7	0xbd7127a6	-0.058875702
8	0xbd59030f	-0.052981433
9	0xbc5d250c	-0.013497602
10	0xbdbf715d	-0.09347794
11	0xbd91775c	-0.07102844
12	0xbc550a5d	-0.013002959
13	0x3d7084a8	0.05872026
14	0x3d92f475	0.07175533
15	0x3b33437e	0.002735346
16	0x3d5052d6	0.05086025
17	0xbc285ef0	-0.010276541
18	0x3d0a5f4a	0.03378228
19	0xbc27d807	-0.010244376
20	0xbcd245fb	-0.025668135
21	0xbd2288dc	-0.0396813
22	0xbd6de4a8	-0.05807939
23	0x3c586996	0.013208767
24	0x3dab0406	0.08350377
25	0xbcd525a2	-0.026018921
26	0xbcb0b077	-0.02156852
27	0xbc81e9c4	-0.015858538
28	0xbd3d218b	-0.046174567
29	0x3af76543	0.0018874783
30	0x3e062c37	0.13102804
31	0x3d07a3d3	0.03311522
32	0x3d11d9e7	0.0356082
33	0x3d9387e1	0.07203651
34	0x3d81c281	0.06335927
35	0xbc6d559d	-0.014485744
36	0xbd79019f	-0.06079256
37	0xbe143aaa	-0.14475504
38	0xbdb72960	-0.089434385
39	0x3d0bbc2b	0.034114998
40	0x3d24ed19	0.040265176
41	0xbda63164	-0.08114889
42	0x3c854b33	0.01627121
43	0x3d97b324	0.07407215
44	0xbd1ed7ae	-0.038779907
45	0x3cd3e2fe	0.025865074
46	0x3ced5f02	0.028975967
47	0x3d477ab6	0.04870101
48	0xbd450046	-0.048095964
49	0xbc8c17f4	-0.017101265
50	0xbd3a7a9a	-0.04552708
51	0x3d4943fd	0.049137104
52	0x3db669ef	0.08906924
53	0x3bc7f7fb	0.0061025596
54	0xbd5263aa	-0.05136458
55	0xbc7e8a14	-0.01553585
56	0x3db81a3e	0.0898938
57	0x3c81e323	0.015855378
58	0xbd41e821	-0.047340516
59	0xbd1c4d21	-0.038159493
60	0xbdca819b	-0.098880015
61	0xbdac0f47	-0.084013514
62	0xba36681e	-0.00069582637
63	0x3cd27801	0.025691988
64	0x3d6186c7	0.055060174
65	0xbc20d80c	-0.009817135
66	0x3d38d77c	0.045127377
67	0x3ce69fca	0.028152365
68	0xbd9f5395	-0.07779614
69	0x3d9a964a	0.075481966
70	0xbd820386	-0.06348328
71	0xbb1f4521	-0.0024302679
72	0xbd328719	-0.04358587
73	0x3d1bc284	0.0380273
74	0x3d4d72f2	0.05015845
75	0xbda86d73	-0.08224001
76	0xbdbdfa2a	-0.09276231
77	0x3d3978de	0.045281284
78	0xbc1277fe	-0.008939741
79	0xbd119357	-0.035540905
80	0x3c6b9d76	0.014380803
81	0x3dae63a2	0.08515097
82	0xbd99d308	-0.07510954
83	0x3d4e3323	0.050341737
84	0xbb82c0aa	-0.0039902525
85	0xbdb62cb9	-0.08895249
86	0x3dcd6aff	0.100301735
87	0x3dffdd27	0.12493353
88	0x3c951063	0.01819629
89	0xbd9128ed	-0.07087884
90	0x3d88c4fd	0.066781975
91	0xbd2afaf6	-0.04174324
92	0xbd3a7e1f	-0.045530435
93	0xbaf91d67	-0.0019005955
94	0x3cee994f	0.029125838
95	0x3d24410d	0.0401011
96	0x3cd52ead	0.026023233
97	0x3d264428	0.040592343
98	0x3c6046b2	0.01368873
99	0x3d60e452	0.054905243
100	0x3d87fc37	0.06639903
101	0x3ded832b	0.11597284
102	0x3d69767b	0.056997757
103	0x3d0dcff7	0.03462216
104	0x3d6a1922	0.057152875
105	0xbbf6db3e	-0.00753346
106	0xbca7b299	-0.020470904
107	0x3d93a2ec	0.07208809
108	0xbd1dc34d	-0.03851633
109	0x3db78280	0.08960438
110	0xbd33b817	-0.043876734
111	0xbc89fc78	-0.01684402
112	0xbd8f6127	-0.07000952
113	0x3d4bdbf4	0.04977031
114	0xbd12b14f	-0.035813626
115	0xbc97b348	-0.018518105
116	0xbca78513	-0.020449197
117	0x3c2c94a2	0.010533484
118	0x3ba802cb	0.005127286
119	0xbdafed79	-0.08590216
120	0x3cdcff00	0.026977062
121	0x3c9d4c58	0.019201443
122	0x3bc9d638	0.00615957
123	0x3d748fc3	0.059707414
124	0xbd787281	-0.060656074
125	0xbcb69d5c	-0.022291832
126	0x3c315079	0.010822409
127	0x3e044b65	0.12919386
128	0xbcbed278	-0.023293719
129	0x3d368dbe	0.04456877
130	0xbd14a2b7	-0.03628799
131	0xbda6181b	-0.081100665
132	0xbd234df5	-0.039869267
133	0xbca4d5cb	-0.020121476
134	0xbd69d839	-0.05709097
135	0xbdc2c5db	-0.09510394
136	0xbc2bf6f8	-0.010495894
137	0x3d18674c	0.037207887
138	0xbdc821bc	-0.09772059
139	0x39674359	0.00022054966
140	0x3d592aa3	0.053019177
141	0x3d108506	0.03528311
142	0xbd33af38	-0.043868273
143	0xbd097072	-0.0335545
144	0xbda5c9c2	-0.08095123
145	0x3ce297ec	0.027660333
146	0x3d861d48	0.06548554
147	0xbccb0bff	-0.024785994
148	0xbcc7f2fd	-0.024407858
149	0x3d74d805	0.059776325
150	0xbda85701	-0.0821972
151	0x3d6d4c3d	0.057934035
152	0xbd5b6a98	-0.053568453
153	0x3d53abc6	0.051677488
154	0x3cda3ef6	0.02664135
155	0x3d1a3f14	0.037657812
156	0x3dcb7d5f	0.09936022
157	0xbda7234a	-0.08161028
158	0x3db4107f	0.08792209
159	0xbdc08886	-0.0940104
160	0xbc108ec5	-0.008823101
161	0x3d58d3b5	0.052936275
162	0x3d4e6fee	0.050399713
163	0x3d1e4713	0.038642
164	0xbd51295e	-0.05106484
165	0x3d3b6120	0.045746922
166	0x3d72f36f	0.059314188
167	0xbd0e1a07	-0.03469279
168	0x3d3cfab5	0.04613753
169	0x3c9d43e4	0.019197412
170	0xbd5477fe	-0.051872246
171	0x3e09599b	0.13413088
172	0xbdd374be	-0.10325001
173	0x3a74f26c	0.0009343985
174	0x3d986965	0.074419774
175	0x3d39ef61	0.045394305
176	0x3c907901	0.017635824
177	0xbdb527cf	-0.088454835
178	0x3ca9d35c	0.020730667
179	0xbd83291f	-0.064043276
180	0xbcafc87b	-0.021457901
181	0x3af75bad	0.0018871926
182	0x3ccef9a5	0.025265524
183	0xbda356db	-0.07975551
184	0x3da3dc16	0.080009624
185	0xbd4e3acc	-0.05034904
186	0xbd615ede	-0.055022113
187	0xbbd33923	-0.00644602
188	0xbda0eae2	-0.078573
189	0x3d87e69f	0.06635784
190	0xbdaf1006	-0.08547978
191	0x3c43ddb1	0.011954711
192	0x38ec4e82	0.0001126798
193	0xbda389f3	-0.07985296
194	0x3b88360b	0.004156833
195	0xbd1bbc1f	-0.038021203
196	0xbc389740	-0.01126653
197	0xbdad0dd9	-0.08449907
198	0x3cf77bc9	0.030210393
199	0xbbc8d081	-0.006128371
200	0x3c15a34f	0.009133174
201	0xbd23acba	-0.039959647
202	0xbd452fc1	-0.048141245
203	0xbd2af5da	-0.04173837
204	0xbcdaf15a	-0.026726414
205	0xbd3afa1f	-0.04564869
206	0xbda5ac50	-0.080895066
207	0xbc3f2bca	-0.011668155
208	0xbd7ab3f5	-0.061206777
209	0x3bc8e12b	0.0061303577
210	0xbdaddd89	-0.0848952
211	0xbd14448f	-0.036198195
212	0x3bfdadea	0.0077416794
213	0x3d23e016	0.040008627
214	0xbd478431	-0.048710052
215	0x3d97153e	0.073770985
216	0x3d302557	0.04300436
217	0xbba8e031	-0.005153679
218	0x3d8481fb	0.06470104
219	0x3d94e415	0.07270066
220	0x3d8620b5	0.06549207
221	0x3c92b762	0.01790971
222	0xbd95c613	-0.0731317
223	0xbd904ad9	-0.07045526
224	0xbcd28348	-0.025697365
225	0xbda1d392	-0.07901682
226	0x3dfc251a	0.12311764
227	0x3cbb9294	0.022897042
228	0xbc5e34de	-0.013562409
229	0x3d8b28da	0.06794901
230	0x3d91913e	0.07107781
231	0x3db1abfb	0.08675381
232	0xbe33e773	-0.1756876
233	0x3cdc45c2	0.026888732
234	0xbd83d4ed	-0.06437097
235	0xbd1062a0	-0.035250306
236	0x3cbf2f3c	0.023337953
237	0xbd322ec9	-0.04350165
238	0x3d1caa48	0.03824833
239	0xbd28b354	-0.041186646
240	0xbd00b345	-0.031420965
241	0x3d28d2ff	0.041216847
242	0x3c1ead59	0.009684884
243	0xbc9ec92c	-0.019383036
244	0x3d894830	0.06703222
245	0x3dbd9f32	0.0925888
246	0x3d54d693	0.051962446
247	0x3d40e391	0.047092024
248	0xbd525aa0	-0.051355958
249	0x3beaf069	0.0071697724
250	0x3dad38fb	0.08458134
251	0xbc655b38	-0.013998799
252	0xbb1791c4	-0.0023127655
253	0xbd979894	-0.07402149
254	0x3d1048e6	0.03522577
255	0xbdf025a6	-0.11725931
